asl_model.pth (torch, 272404 bytes, 10 tensors)

conv1.weight f4 [32, 1, 3, 3]
0	0xbdeb5677	-0.11491101
1	0x3eac03b1	0.33596566
2	0x3e5e221b	0.21692698
3	0x3e79cbfe	0.24394223
4	0x3dde6729	0.1085952
5	0x3ebeaeeb	0.37242827
6	0x3e7e304d	0.24823113
7	0x3ed4dc17	0.41574165
8	0xbe2e67b0	-0.17031741
9	0xbdd763bf	-0.10517072
10	0xbf28f076	-0.65991914
11	0xbe85e7e0	-0.2615347
12	0xbeaca8b7	-0.3372247
13	0xbde2d62d	-0.11076007
14	0x3e51dbee	0.20494053
15	0x3df35bb2	0.11882724
16	0x3f04db09	0.5189672
17	0x3f0a552e	0.54036224
18	0x3eee8cb5	0.46591726
19	0x3f3141af	0.6924085
20	0xbec56901	-0.38556674
21	0xbdc89c27	-0.09795409
22	0x3e465461	0.19368125
23	0xbe2a231d	-0.16614957
24	0xbe7af3e5	-0.24507101
25	0x3e847ccb	0.2587646
26	0xbf5f7e91	-0.873025
27	0x3e03b0f0	0.12860465
28	0xbcb7bb07	-0.022428049
29	0x3e6c7dcc	0.23094863
30	0x3edf3d85	0.43601623
31	0x3e797315	0.24360307
32	0x3d146567	0.036229517
33	0x3eb87361	0.36025527
34	0x3ea03a0f	0.31294295
35	0xbe87f939	-0.2655733
36	0xbe2b276f	-0.16714261
37	0xbe180010	-0.14843774
38	0x3c4db7d0	0.012556031
39	0xbed452ca	-0.41469413
40	0xbde6f52d	-0.11277232
41	0xbf19f79c	-0.60143447
42	0xbcf2b466	-0.029627036
43	0xbe838fbf	-0.25695607
44	0xbf252476	-0.6450876
45	0xbf15ace3	-0.5846693
46	0xbee9f68b	-0.4569591
47	0x3ec8bdff	0.39207456
48	0x3d52cefc	0.051466927
49	0x3eee0936	0.46491402
50	0x3b4a5cbf	0.0030878035
51	0x3daf6e4e	0.08565961
52	0x3eed421b	0.46339497
53	0x3ec4b377	0.3841817
54	0xbd531157	-0.05153021
55	0x3f07ab2d	0.5299557
56	0xbf39f5f4	-0.7264092
57	0xbe38bdf4	-0.18041211
58	0x3f08fd69	0.53511673
59	0xbf282057	-0.65674347
60	0x3ec94adf	0.39314935
61	0x3f0b4943	0.54408664
62	0xbee1ab97	-0.44076225
63	0xbe969c38	-0.2941606
64	0xbe94446a	-0.28958446
65	0xbeb2c9d4	-0.34919608
66	0x3e78094c	0.24222296
67	0xbec85908	-0.39130425
68	0x3e73c62e	0.23806068
69	0xbe9befae	-0.304563
70	0x3ca5b331	0.020227047
71	0xbea0fb4a	-0.31441718
72	0x3f0e410b	0.55568
73	0xbec5ad42	-0.38608748
74	0x3e84dae8	0.25948262
75	0x3e3ff29b	0.1874489
76	0xbf20c95a	-0.6280724
77	0x3e0ef7d4	0.13961726
78	0xbe4d2118	-0.20032156
79	0xbf3ecd2e	-0.7453183
80	0x3f32bc81	0.69818884
81	0xbe45dc3f	-0.19322298
82	0x3e3c75cd	0.18404312
83	0x3e906a67	0.2820618
84	0x3eb16ca1	0.3465319
85	0x3e6be147	0.23035155
86	0x3e7ead0a	0.24870697
87	0xbeeb95ed	-0.46012822
88	0xbf07d49e	-0.53058803
89	0xbee2c14e	-0.44288105
90	0x3e2db376	0.1696299
91	0x3ea87690	0.32902956
92	0x3e46e117	0.19421802
93	0x3d98e3d4	0.0746533
94	0x3efffde0	0.4999838
95	0xbc427537	-0.0118687665
96	0x3ec64772	0.38726383
97	0xbe1d1dff	-0.15343474
98	0x3e95297f	0.29133222
99	0x3cf450ca	0.02982368
100	0xbea05694	-0.31316054
101	0xbf322ef9	-0.69602925
102	0x3ecf4054	0.40478766
103	0x3e64e0e1	0.2235141
104	0xbee6f403	-0.4510804
105	0x3ed2e2ce	0.41188663
106	0x3f0abf19	0.5419784
107	0x3b92ab86	0.0044760136
108	0xbe36f9f3	-0.17868786
109	0xbdfa9631	-0.12235678
110	0x3e5d9e0c	0.21642321
111	0xbe481c87	-0.19542132
112	0xbddd4955	-0.108050026
113	0x3f115622	0.56772053
114	0xbf0a362d	-0.53988916
115	0xbe0ae0ee	-0.13562366
116	0x3f17749d	0.5916231
117	0xbdb21365	-0.086951055
118	0x3deb2653	0.11481919
119	0x3eadd032	0.33947903
120	0x3e06173a	0.13094798
121	0xbdd0c45d	-0.10193703
122	0x3e692921	0.22769596
123	0xbecc7c52	-0.399386
124	0xbe9cb015	-0.3060309
125	0xbf24a165	-0.6430877
126	0xbeed10c9	-0.4630187
127	0xbe9a3b7e	-0.30123514
128	0xbeb07749	-0.34466007
129	0xbec21f85	-0.37914672
130	0xbecd2a0f	-0.4007115
131	0xbef11250	-0.47084284
132	0xbea513ba	-0.32241613
133	0xbe2bcc72	-0.16777208
134	0xbe96e231	-0.29469445
135	0xbd8c8f2e	-0.06863247
136	0x3e16440c	0.14674395
137	0x3f008c0d	0.502137
138	0xbf17c780	-0.5928879
139	0xbe9904f2	-0.29886585
140	0x3f033c8c	0.5126426
141	0xbeaf7e04	-0.3427583
142	0xbe83b47d	-0.2572364
143	0x3ed5c5ae	0.4175238
144	0x3e2e7a20	0.17038774
145	0x3ee936f9	0.45549753
146	0xbc94a57a	-0.018145312
147	0x3e5cb7b7	0.21554457
148	0xbdbfd512	-0.09366812
149	0x3d9f6cfb	0.07784458
150	0x3e3d4e4b	0.18486898
151	0xbd53de45	-0.051725645
152	0x3e0e11e9	0.1387402
153	0xbeaf9d5d	-0.34299746
154	0xbe8111c7	-0.25208876
155	0x3ed09b7c	0.40743625
156	0xbe5c82fa	-0.21534339
157	0x3f0492cb	0.5178649
158	0x3f002b8c	0.5006645
159	0x3e96b9fc	0.2943877
160	0x3eeda681	0.46416095
161	0x3edc06e3	0.42974004
162	0x3f363269	0.7117067
163	0x3e9eeb5b	0.31038937
164	0x3ee0afd4	0.43884146
165	0xbe65c4a8	-0.224383
166	0xbf0032bd	-0.5007742
167	0x3da66a16	0.08125703
168	0xbe9120a7	-0.28345224
169	0xbecd4e3e	-0.40098757
170	0xbf1092e3	-0.5647413
171	0x3ee30723	0.44341382
172	0xbe73b672	-0.23800066
173	0xbf064c98	-0.5246062
174	0x3ee1f6d2	0.4413362
175	0x3e11faf3	0.14255886
176	0xbf17ce8f	-0.5929956
177	0x3f2193d1	0.63116175
178	0xbe576ffe	-0.21038815
179	0xbeb4feb3	-0.3535057
180	0xbe89b15f	-0.26893136
181	0x3e46008e	0.19336149
182	0xbe12efae	-0.14349243
183	0xbde51601	-0.111858375
184	0xbed12240	-0.40846443
185	0xbe8dd683	-0.27702722
186	0xbe8c59a8	-0.27412152
187	0xbdd5e7ca	-0.10444601
188	0xbef82394	-0.48464644
189	0xbf104b70	-0.5636511
190	0xbe680851	-0.22659422
191	0xbef6cb2d	-0.48201886
192	0xbee15b81	-0.44015124
193	0x3e5489b0	0.20755649
194	0x3e56e6e3	0.20986514
195	0xbd0269b0	-0.031839073
196	0x3f28ceec	0.6594074
197	0x3f25a3c6	0.64703023
198	0x3f2ea6fb	0.6822354
199	0xbe531be1	-0.20616104
200	0x3d68e640	0.05686021
201	0x3decb817	0.1155855
202	0xbf341079	-0.70337635
203	0xbe946852	-0.2898584
204	0x3e8aec88	0.27133584
205	0xbf3d6b4b	-0.7399184
206	0x3f126911	0.5719157
207	0x3cf1171f	0.02942997
208	0x3e737cc7	0.23778068
209	0xbf31dba7	-0.6947579
210	0x3e086a42	0.13321784
211	0x3e1d33fd	0.15351863
212	0xbe692eea	-0.22771803
213	0x3ee27d97	0.44236442
214	0x3ecab6ac	0.39592493
215	0xbeba1b0a	-0.36348754
216	0x3eccf521	0.4003077
217	0x3e449fc1	0.19201566
218	0x3f02eff2	0.5114738
219	0xbe51f3a5	-0.205031
220	0x3e758a5b	0.2397856
221	0xbf1d6818	-0.6148696
222	0x3c4a1cba	0.0123359505
223	0xbdc00b62	-0.09377171
224	0xbf3297b4	-0.6976273
225	0x3d322028	0.043487698
226	0x3f0af5ef	0.54281515
227	0x3e58487a	0.21121398
228	0xbef6399b	-0.48090824
229	0xbe895c8f	-0.2682843
230	0x3f1d7911	0.6151286
231	0xbf06f806	-0.52722204
232	0xbf300d71	-0.6877051
233	0x3f1cb587	0.6121449
234	0x3eea722b	0.45790228
235	0xbef20ff7	-0.47277805
236	0xbec4d3df	-0.38442895
237	0x3f334b94	0.700372
238	0x3e766b0e	0.24064276
239	0xbf5add34	-0.8549378
240	0x3daf973f	0.0857377
241	0xbd355e98	-0.044279665
242	0x3e332fe8	0.17498744
243	0x3e42cc50	0.19023252
244	0x3e927369	0.28603676
245	0xbf1e2fd2	-0.6179172
246	0x3de216ac	0.110394806
247	0x3ed4bbc4	0.41549504
248	0xbf2f22db	-0.6841256
249	0x3e94b0b8	0.29041076
250	0x3f0cf539	0.5506168
251	0xbf268b52	-0.65056336
252	0x3e974c79	0.29550532
253	0xbeabce2a	-0.33555728
254	0xbec05743	-0.37566575
255	0x3f19bcf8	0.6005397

conv1.bias f4 [32]
0	0x3e42cc41	0.19023229
1	0x3e3d4e4b	0.18486898
2	0x3db37920	0.08763337
3	0xbea46508	-0.3210833
4	0xbdc1c215	-0.09460846
5	0xbe102e00	-0.14080048
6	0x3dae84ac	0.08521399
7	0x3e9586d2	0.29204422
8	0x3df2c810	0.11854565
9	0x3e84a167	0.2590439
10	0x3deb25c3	0.11481812
11	0x3dedefc6	0.11617999
12	0x3e8c61c6	0.27418345
13	0x3ebc1308	0.3673327
14	0xbea8cc4b	-0.32968363
15	0x3e608a35	0.21927722
16	0x3e4b5405	0.1985627
17	0xbc0f8e6b	-0.008761982
18	0x3e2defa6	0.1698595
19	0x3e32ef62	0.1747413
20	0xbdb84d31	-0.08999098
21	0xbcb0269d	-0.021502787
22	0x3e2c5ac2	0.16831496
23	0x3d3093f6	0.043109857
24	0x3e82d9ba	0.25556737
25	0x3d33c8e5	0.04389276
26	0x3dfa41fc	0.12219617
27	0x3e0a7dcd	0.13524552
28	0x3e0afa61	0.13572074
29	0xbe935452	-0.2877527
30	0x3ec6fdbe	0.38865465
31	0xbd5506d8	-0.05200848

conv2.weight f4 [64, 32, 3, 3]
0	0x3dd43bc4	0.10362962
1	0x3dbd42b5	0.09241239
2	0x3a9f8653	0.0012170769
3	0x3e12189b	0.14267199
4	0x3c09efd6	0.008418998
5	0xbd3d9152	-0.046281166
6	0x3d568823	0.052375924
7	0xbde2ee88	-0.110806525
8	0xbd833e52	-0.06408371
9	0x3e8ad601	0.27116397
10	0x3e382df5	0.17986281
11	0xbd1fc5d7	-0.039007034
12	0x3d29d088	0.041458637
13	0xbe8c804b	-0.2744163
14	0xbd0a5b89	-0.0337787
15	0xbdf2672d	-0.118360855
16	0x3dd2c4ba	0.10291429
17	0x3e40c3fb	0.1882476
18	0xbe05e825	-0.13076837
19	0xbdffddb3	-0.12493458
20	0x3cb99e90	0.022658616
21	0x3defdd3c	0.11712119
22	0xbcb15ae7	-0.02164979
23	0x3ddde8d6	0.108354256
24	0x3e1d8609	0.15383162
25	0x3d1fdf66	0.03903141
26	0x3d39b872	0.045341916
27	0x3e2476ef	0.16060995
28	0x3e257e58	0.16161478
29	0x3d264659	0.040594433
30	0x3dafc815	0.085830845
31	0x3da1904c	0.078888506
32	0xbcd5c368	-0.026094154
33	0x3d5b745e	0.053577773
34	0xbdde8d3e	-0.108667836
35	0xbe3b9007	-0.18316661
36	0xbe8cf9f4	-0.2753445
37	0xbe3a62b9	-0.18201722
38	0x3e0de0d1	0.13855292
39	0xbe0f018d	-0.13965435
40	0x3d97f48a	0.07419689
41	0x3e342a3f	0.1759424
42	0xbd3969ff	-0.0452671
43	0x3db16d8d	0.08663473
44	0xbd1fdc88	-0.039028674
45	0x3e85fda7	0.26170084
46	0x3e45b319	0.19306602
47	0x3d9c98e3	0.07646348
48	0x3e2e4353	0.1701787
49	0xbe1e9943	-0.15488152
50	0xbe28ecf3	-0.16496639
51	0x3a181fcb	0.00058030774
52	0xbe34a2ff	-0.17640303
53	0xbd9121f5	-0.07086555
54	0xbe50a929	-0.2037703
55	0xbea8a062	-0.32934862
56	0xbe7942dc	-0.24341911
57	0xbacfd1b1	-0.001585534
58	0xbe2d36ea	-0.1691548
59	0xbca4ff0a	-0.020141143
60	0x3beacc46	0.0071654646
61	0xbd918b19	-0.07106609
62	0xbd387232	-0.04503078
63	0xbc956955	-0.018238703
64	0xbdb2edab	-0.08736738
65	0x3d7a3f53	0.061095547
66	0xbe0b0284	-0.13575178
67	0x3db50eaa	0.088406876
68	0x3df43b8f	0.119254224
69	0x3c3a88b4	0.011385132
70	0x3e14b940	0.14523792
71	0x3dc10f86	0.09426789
72	0xbe36cfe1	-0.17852737
73	0xbe2f6fb2	-0.17132452
74	0xbe6310ca	-0.22174373
75	0xbed2a330	-0.41140127
76	0x3e208b15	0.15678056
77	0x3cbab301	0.022790434
78	0xbdb2d33d	-0.08731697
79	0x3d73c725	0.05951609
80	0xbb634bb2	-0.003468257
81	0xbd9c2e1d	-0.07625983
82	0x3d75632d	0.059909035
83	0x3dc3a991	0.095538266
84	0xbd367293	-0.04454286
85	0x3dd80f4c	0.10549793
86	0x3e1f6ea4	0.1556955
87	0x3d87f011	0.06637586
88	0x3df591a8	0.11990672
89	0x3d088b7d	0.03333615
90	0x3df4747e	0.119362816
91	0x3e103645	0.14083202
92	0x3d66d938	0.0563595
93	0x3da6be26	0.08141737
94	0xbb4b1b4e	-0.0030991617
95	0xbd9d1f53	-0.0767199
96	0x3d972bc6	0.07381396
97	0xbda0179f	-0.07817005
98	0xbdd10cb7	-0.10207503
99	0xbd39fe3d	-0.045408476
100	0x3a40580a	0.00073373376
101	0x3cb3f7e4	0.02196879
102	0x3c8d060d	0.0172148
103	0xbd56fe6c	-0.05248873
104	0xbdb7d683	-0.08976462
105	0x3d8c247d	0.06842897
106	0xbdc1e9c1	-0.09468413
107	0xbe2c1378	-0.16804302
108	0x3d0a0ea4	0.03370537
109	0x3d0a2876	0.033729993
110	0xbe3285d4	-0.17433864
111	0xbbfe7b1d	-0.007766141
112	0xbe16b988	-0.14719212
113	0xbe370b09	-0.17875303
114	0xbe1c58b8	-0.15268219
115	0xbdea4789	-0.114394255
116	0xbd535fdb	-0.051605087
117	0xbdab3e39	-0.083614774
118	0x3d32742b	0.043567818
119	0x3db65113	0.089021824
120	0xbd121ebd	-0.035673846
121	0x3e2fd91f	0.17172669
122	0x3da7ac43	0.08187153
123	0x3d2fced2	0.04292185
124	0x3dfbe751	0.122999795
125	0x3c893c8f	0.01675251
126	0xbde6125c	-0.112339705
127	0xbe725675	-0.23665793
128	0x3e0b0e35	0.13579638
129	0xbe89b00e	-0.26892132
130	0x3d44749e	0.047962777
131	0x3e0a9b62	0.13535836
132	0xbd6f135d	-0.058368076
133	0x3dc1d80e	0.09465037
134	0x3d40cd6b	0.0470709
135	0x3cf654f6	0.03006981
136	0xbd87755a	-0.0661418
137	0xbe8094a6	-0.2511341
138	0xbdd7fafa	-0.10545917
139	0xbdcc43e3	-0.09973886
140	0xbdd4e9ac	-0.10396132
141	0xbe455ca9	-0.19273628
142	0xbd8a9c19	-0.067680545
143	0xbd590e5f	-0.05299222
144	0x3cf14ce7	0.029455615
145	0x3df14ea1	0.117825754
146	0x3da52823	0.08064296
147	0x3da9f74e	0.08299123
148	0x3d91536c	0.070959896
149	0xbdba29f1	-0.09090031
150	0x3b123bd2	0.0022313488
151	0xbdb356fe	-0.08756827
152	0xbd0f39af	-0.03496712
153	0x3dfe1b7d	0.12407587
154	0x3df81da4	0.121150285
155	0xbbe9db88	-0.007136766
156	0x3e18a674	0.14907247
157	0xbd9b908d	-0.0759593
158	0xbdf1ac20	-0.11800408
159	0xbc41dcab	-0.0118323965
160	0xbe14e113	-0.14538984
161	0xbd3ba354	-0.04581006
162	0xbe092521	-0.1339307
163	0x3c3d7d3b	0.011565502
164	0x3d225a34	0.039636806
165	0xbde2ebe3	-0.11080148
166	0x3e79125f	0.24323414
167	0x3d9ea13f	0.07745599
168	0x3c05e57a	0.008172387
169	0x3e1360c7	0.14392386
170	0x3cd14c48	0.025549069
171	0xbe172962	-0.1476188
172	0xbdfc04c9	-0.123056
173	0xbd933a7f	-0.071888916
174	0x3e0a1357	0.1348394
175	0xbb1bd73f	-0.002377942
176	0xbce34b1a	-0.027745772
177	0x3e3273be	0.17426965
178	0x3c96aced	0.018393004
179	0xbb968124	-0.0045930315
180	0xbe4375e6	-0.19087943
181	0xbde6cfa9	-0.11270077
182	0x3d976e3e	0.07394074
183	0xbe3414ca	-0.17586055
184	0x3d96898b	0.07350453
185	0x3dd32a35	0.10310785
186	0xbd7ee592	-0.062230654
187	0x3dec69c8	0.11543614
188	0xbc0eaca1	-0.00870815
189	0x3ecb0887	0.39654943
190	0x3e87f3c6	0.26553172
191	0xbdddb961	-0.10826374
192	0x3e73a80b	0.23794572
193	0xbefcd13a	-0.49378377
194	0x3afe8dcd	0.0019420922
195	0x3c363dab	0.011123101
196	0x3e09a044	0.13440043
197	0x3e935110	0.28772783
198	0xbe47424b	-0.19458883
199	0xbde391b7	-0.11111777
200	0xbe166ccc	-0.1468994
201	0xbe37690b	-0.17911164
202	0x3e0d787c	0.13815492
203	0x3d9ebf34	0.07751313
204	0x3e105e33	0.14098434
205	0x3de35386	0.11099915
206	0x3b9a78bf	0.004714101
207	0x3ab8bfb3	0.0014095217
208	0xbc85c98f	-0.016331462
209	0xbbaecb7b	-0.0053343154
210	0x3df011c9	0.11722142
211	0xbde75f93	-0.11297526
212	0xbe0f26ad	-0.13979597
213	0x3e0532d1	0.13007666
214	0x3bc7cb68	0.006097246
215	0xbdf204a3	-0.11817291
216	0xbcf9e719	-0.030505704
217	0xbd9182cd	-0.071050264
218	0x3d2c59e8	0.04207793
219	0x3e1f9570	0.1558435
220	0x3db96447	0.090523295
221	0x3dac0f4c	0.08401355
222	0x3dacd801	0.08439637
223	0x3dde1b75	0.10845081
224	0x3d0e36ba	0.03472016
225	0xbe72c8bd	-0.23709388
226	0xbe42cf5d	-0.19024415
227	0xbeac2ea7	-0.33629343
228	0xbed7c109	-0.42139462
229	0xbc80f0b9	-0.015739786
230	0x3ca5fe5d	0.020262891
231	0xbe913f51	-0.2836862
232	0xbd51be93	-0.051207136
233	0xbdf0b6b0	-0.11753595
234	0xbea835fe	-0.32853693
235	0xbe470e87	-0.19439135
236	0xbd1d329f	-0.038378354
237	0xbda0bffd	-0.07849119
238	0xbd660441	-0.0561564
239	0xbca07e9c	-0.019591622
240	0x3df51cdb	0.11968394
241	0x3d97c100	0.07409859
242	0x3bfbe896	0.0076876385
243	0xbe5b3aae	-0.21409103
244	0xbe7faa16	-0.24967226
245	0xbe23ec4d	-0.1600811
246	0x3df8bd9a	0.12145539
247	0xbd5ba559	-0.053624485
248	0xbc34c883	-0.011034134
249	0x3df64497	0.12024801
250	0xbae4138c	-0.0017400845
251	0xbdbac08d	-0.091187574
252	0xbf060d4d	-0.52364045
253	0xbe9ccbde	-0.30624288
254	0xbb000588	-0.0019534547
255	0xbe41569a	-0.18880692

conv2.bias f4 [64]
0	0xbd68a67a	-0.05679939
1	0xbd8c35c6	-0.06846194
2	0x3cbdc4a2	0.02316505
3	0xbb0f155c	-0.00218328
4	0xbdc7b2f6	-0.09750931
5	0xbdac906d	-0.084259845
6	0xbc8cc3e5	-0.017183254
7	0xbe30d54d	-0.17268868
8	0xbd63931e	-0.055560224
9	0xbc97e924	-0.018543787
10	0xbc90b44f	-0.017664103
11	0xbd0e50e1	-0.0347451
12	0xbc89aecb	-0.01680698
13	0x3bab7005	0.0052318596
14	0x3c60c51e	0.013718871
15	0xbd38327a	-0.044970013
16	0x3c68068e	0.014161719
17	0xbcf55908	-0.02994968
18	0xbdec0c14	-0.11525741
19	0xbccaac8c	-0.02474048
20	0xbcfa6194	-0.030564107
21	0x3d3c51af	0.045976337
22	0xbd25d592	-0.04048688
23	0x3d05ffe2	0.032714732
24	0xbdc8ded3	-0.09808125
25	0xbd93d692	-0.072186604
26	0xbd0ea5dd	-0.03482615
27	0xbc428a25	-0.011873757
28	0xbe01ef5f	-0.12688969
29	0xbd8e2574	-0.06940737
30	0xbc7cc467	-0.015427685
31	0x3c2a9eb9	0.010413819
32	0xbdba8fee	-0.09109484
33	0xbda45d53	-0.08025613
34	0xbd92b7e0	-0.071639776
35	0xbe12f5ce	-0.1435158
36	0xbcdca154	-0.026932396
37	0xbd5cc369	-0.053897295
38	0xbaae1715	-0.0013282025
39	0xbdc6d8a2	-0.09709288
40	0x3e12ea0b	0.14347093
41	0xbdf03536	-0.11728899
42	0x3ddf3cf2	0.10900296
43	0xbd40061a	-0.04688082
44	0xbd805723	-0.0626662
45	0x3d1cad40	0.03825116
46	0xbc983297	-0.01857881
47	0x3d56eddf	0.052472945
48	0x3e2cee8e	0.16887876
49	0xbe120b84	-0.14262205
50	0xbdbfca26	-0.09364729
51	0xbbc26fb5	-0.0059337267
52	0x3d316495	0.043308813
53	0x3d148153	0.036256146
54	0x3bd22974	0.006413633
55	0xbe2cc2b0	-0.16871142
56	0x3e12eed2	0.14348915
57	0x3c40c8df	0.011766641
58	0xbb8079e0	-0.0039207786
59	0x3da6e4d0	0.08149111
60	0xbd37fbff	-0.044918057
61	0x3cce4743	0.025180465
62	0xbcf59688	-0.029979005
63	0x3c807c18	0.015684173

conv3.weight f4 [64, 64, 3, 3]
0	0xbe1f5c62	-0.15562585
1	0x3e3f35a2	0.18672803
2	0x3e9e25d8	0.30888247
3	0x3c22b0bb	0.009929831
4	0x3e276c98	0.16350019
5	0xbdb8316c	-0.089938015
6	0x3d2d7a56	0.042352997
7	0xba1ae04e	-0.0005908058
8	0x3c8eb7c6	0.017421614
9	0x3eac7b90	0.3368802
10	0x3e488848	0.19583237
11	0x3e87069c	0.2637223
12	0xbe43b5b9	-0.1911229
13	0x3c6c658d	0.0144285085
14	0xbe19e212	-0.15027645
15	0xbde0bb0a	-0.10973175
16	0xbdf06cd4	-0.11739507
17	0xbe8df217	-0.27723762
18	0x3c3d3be6	0.011549925
19	0xbceddfe8	-0.02903743
20	0x3bcc5100	0.006235242
21	0x3cfbd2eb	0.030740222
22	0xbcfd52e6	-0.030923318
23	0xbc23cdc6	-0.009997791
24	0xbd03e925	-0.032204766
25	0x3c7042fb	0.014664407
26	0xbc6a64e6	-0.014306283
27	0x3e769770	0.24081206
28	0x3ea0abfe	0.3138122
29	0x3e8c24f0	0.2737193
30	0xbe0bf693	-0.1366828
31	0x3d80758d	0.06272421
32	0xbdb47e5b	-0.08813163
33	0xbe3a8296	-0.18213877
34	0xbe069226	-0.13141689
35	0xbecd857d	-0.40140906
36	0xbd6b5903	-0.057457935
37	0xbd2b2a8d	-0.041788626
38	0xbe7e01f3	-0.24805431
39	0x3bbdcd1a	0.0057922723
40	0xbc01878e	-0.007905854
41	0xbde8a05b	-0.113587104
42	0x3e1f78fe	0.15573499
43	0x3d81ceb3	0.06338253
44	0x39d20bf8	0.0004006324
45	0x3db44cbd	0.08803699
46	0xbdb99578	-0.09061712
47	0x3e38852f	0.18019556
48	0x3e0b4e98	0.136042
49	0xbbfb95da	-0.007677776
50	0x3ccaaa79	0.02473949
51	0x3c5905f2	0.013246046
52	0x3e4a3d79	0.19750012
53	0x3cfac2ba	0.030610431
54	0xba1ad5cf	-0.0005906494
55	0xbcf0d483	-0.029398208
56	0x3b68a417	0.0035498196
57	0xbc16c18f	-0.009201421
58	0x3cf78c2b	0.030218204
59	0xbd00fb30	-0.03148955
60	0x3cbfb384	0.02340103
61	0xbc92ae05	-0.017905245
62	0xbacd7d5b	-0.0015677618
63	0xbdbe364b	-0.09287699
64	0xbcedffb7	-0.029052598
65	0xbd9debe1	-0.07711006
66	0xbddc969c	-0.10770914
67	0xbd5a656f	-0.05331939
68	0xbd54fab6	-0.05199691
69	0x3dc107c6	0.09425311
70	0xbd02faaf	-0.03197735
71	0x3dbe0070	0.09277427
72	0x3eb8c02c	0.36084116
73	0x3e6b7013	0.22991972
74	0x3ea5e45c	0.32400787
75	0xbe105dc0	-0.14098263
76	0x3e00268e	0.12514707
77	0xbd345545	-0.04402663
78	0xbd90b094	-0.070649296
79	0xbd8c565d	-0.0685241
80	0xbe8ae16b	-0.27125105
81	0x3d852e8f	0.06503021
82	0xbd0389bf	-0.032113787
83	0xbe213d08	-0.15745938
84	0x3e0e174f	0.13876079
85	0x3c60934b	0.013706992
86	0xbd482999	-0.048867796
87	0xbdcb5ab9	-0.09929413
88	0x3e1ca2a2	0.15296414
89	0x3dfecceb	0.12441429
90	0xbd28849c	-0.04114209
91	0xbbc5b6d6	-0.0060337586
92	0x3dfa18bb	0.12211748
93	0x3caceac6	0.021108042
94	0xbd605abd	-0.054774035
95	0xbc397ac3	-0.011320773
96	0xbd25e09d	-0.04049741
97	0xbddb8f7e	-0.10720728
98	0x3c16f6ce	0.009214116
99	0x3e0db559	0.1383871
100	0xbd133561	-0.035939578
101	0x3e382adb	0.17985098
102	0xbd35588f	-0.04427391
103	0xbdc72f68	-0.09725839
104	0xbde9c5d4	-0.11414686
105	0x3d641ddd	0.055692542
106	0xbd6de5d2	-0.0580805
107	0xbe7623aa	-0.24037042
108	0xbd57a1be	-0.052644484
109	0xbc598de4	-0.013278458
110	0x3d36ab3d	0.0445969
111	0xbd44bc84	-0.048031345
112	0xbdc2badb	-0.09508296
113	0xbd6f1af2	-0.058375306
114	0x3e527e59	0.2055601
115	0x3dcb0d30	0.09914625
116	0x3e439961	0.19101478
117	0x3c6adc5d	0.014334765
118	0x3c18dc75	0.009329905
119	0xbbc3a3ae	-0.00597044
120	0xbc949689	-0.018138187
121	0xbdb9aca3	-0.09066131
122	0xbc0d89d1	-0.008638815
123	0xbd8b6e4b	-0.06808146
124	0xbd6ce035	-0.057831008
125	0xbd63f75e	-0.05565583
126	0x3e0b7968	0.13620532
127	0x3ea04ae3	0.31307134
128	0x3e7326f5	0.2374533
129	0xbdf2ec8c	-0.11861524
130	0x3dbb9b13	0.091604374
131	0x3c8bd3dd	0.017068798
132	0xbe87a858	-0.26495624
133	0xbcb3b47d	-0.02193665
134	0xbe84abbc	-0.25912273
135	0xbd283e9b	-0.04107533
136	0x3dc07619	0.09397525
137	0xbe1127eb	-0.14175384
138	0xbd71419a	-0.058900453
139	0x3bdc86ed	0.0067299516
140	0xbe0bf3b5	-0.13667186
141	0xbd7d02c9	-0.061770234
142	0x3d1d7555	0.038441975
143	0x3c147133	0.009060192
144	0x3d26d71d	0.04073249
145	0xbd29de78	-0.04147193
146	0xbd43f203	-0.047838222
147	0x3da24481	0.07923222
148	0x3d016536	0.031590663
149	0x3d0745ec	0.033025667
150	0x3bad385a	0.0052862586
151	0x3d46a596	0.04849776
152	0xbb9c3a27	-0.0047676745
153	0x3c8940a1	0.01675445
154	0xbcd1461f	-0.025546132
155	0xbc61ac66	-0.013774013
156	0xbd0a1ed8	-0.03372082
157	0xbca625ae	-0.020281639
158	0xbc06df98	-0.00823202
159	0x3afc7512	0.0019260964
160	0xbd1ea894	-0.038734987
161	0xbc0281ab	-0.007965486
162	0x3dad60d4	0.08465734
163	0x3a47030a	0.00075917004
164	0x3df32ab4	0.11873379
165	0xbd049fc0	-0.032378912
166	0xbca2d573	-0.019877171
167	0xbde8a89b	-0.11360284
168	0x3d7bfcbb	0.06152032
169	0x3d662c4d	0.056194592
170	0xbdcc58be	-0.09977864
171	0xbd8f1c1f	-0.069877855
172	0x3c035e3a	0.008018071
173	0xbd0b56b0	-0.03401822
174	0xbd7be6f3	-0.061499547
175	0x3da6c03e	0.08142136
176	0xbd4fb23e	-0.050707094
177	0x3da086c4	0.078382045
178	0x3d21a864	0.03946723
179	0xbd7bfcbc	-0.061520323
180	0x3c2f7fb2	0.010711597
181	0xbcc38281	-0.02386594
182	0xbc695c1a	-0.01424315
183	0x3ca12687	0.019671692
184	0x3c4cdbac	0.012503546
185	0x3d1b141e	0.037860982
186	0x3cdb4e89	0.026770847
187	0x3cc5e4c7	0.024156941
188	0x3b835fd0	0.0040092245
189	0x3d24bc7e	0.040218823
190	0x3c83817e	0.016052958
191	0x3d1393b5	0.036029536
192	0xbd19aaaf	-0.037516292
193	0xbdd82f1f	-0.10555863
194	0xbd617baa	-0.055049576
195	0x3e81a7b7	0.2532327
196	0x3c3f3ae3	0.0116717545
197	0x3da911b9	0.082553335
198	0x3e43c64a	0.1911861
199	0x3e5c98e4	0.21542698
200	0x3dca6f08	0.09884459
201	0xbd3e32ea	-0.046435274
202	0x3db0b658	0.08628529
203	0xbd88fec9	-0.066892214
204	0xbe4abb3f	-0.19797991
205	0xbdbfa0c1	-0.09356833
206	0xbea74e60	-0.32676983
207	0xbd356293	-0.04428346
208	0xbb04c468	-0.0020258669
209	0x3c837c6e	0.016050544
210	0xbccf73a1	-0.02532369
211	0x3c33a7f9	0.010965341
212	0xbd06a5b7	-0.03287288
213	0x3b44f9f2	0.0030056206
214	0x3cf477f7	0.02984236
215	0x3abfd662	0.0014636035
216	0x3ba98a04	0.0051739234
217	0x3cffe28d	0.031235958
218	0xbcaad3c0	-0.020852923
219	0xbce5887b	-0.02801918
220	0xbc8f5620	-0.017497122
221	0x3b9ac694	0.0047233794
222	0x3dd4d6f5	0.10392562
223	0x3ce44968	0.027867034
224	0x3dcdd997	0.100512676
225	0xbe2813f2	-0.16413859
226	0xbe56c326	-0.2097288
227	0xbe1363d2	-0.14393547
228	0xb5975b09	-1.1276871e-06
229	0x3cba346f	0.02273008
230	0xbd5691b2	-0.05238504
231	0x3daf5d59	0.085627265
232	0x3e153220	0.14569902
233	0x3e32e88d	0.17471524
234	0xb9c522c7	-0.0003760068
235	0x3875989c	5.855468e-05
236	0x3cf91af0	0.030408353
237	0xbc61bba6	-0.013777649
238	0xbc822b19	-0.015889691
239	0x3d193242	0.037401445
240	0xb9137018	-0.0001406077
241	0x3c221ebc	0.009895023
242	0xbc77d21a	-0.015125776
243	0xbdc752dd	-0.09732602
244	0xbe1cf845	-0.15329082
245	0xbe9f4816	-0.31109685
246	0xbe136eb3	-0.14397697
247	0x3ce6915c	0.028145485
248	0xbe45f5fb	-0.19332115
249	0x3df12c6f	0.11776053
250	0x3dd87e9b	0.10571023
251	0x3d4dd922	0.050255902
252	0x3d87f750	0.06638968
253	0xbcf998c0	-0.030468345
254	0xbe0ef68f	-0.13961242
255	0x3d96d698	0.07365149

conv3.bias f4 [64]
0	0x3ae18f82	0.0017208906
1	0x3cd4a141	0.025955798
2	0xbceac816	-0.028659862
3	0xbd2ebbbc	-0.042659506
4	0x3d2b5866	0.04183235
5	0xbd103b00	-0.035212517
6	0xbc8e9ab5	-0.017407754
7	0xbd441048	-0.04786709
8	0xbcd4809b	-0.02594023
9	0xbd4e4dc7	-0.050367143
10	0x3c9ac7b5	0.018894056
11	0xbdb6ca44	-0.08925298
12	0x3d0096fd	0.031393994
13	0x3b83d197	0.004022788
14	0xbd2e7c6a	-0.04259912
15	0xbd810399	-0.06299514
16	0x3cf65f6d	0.0300748
17	0xbdb9d2b9	-0.09073395
18	0xbd3a9928	-0.045556217
19	0xbb2be89c	-0.0026231175
20	0xbd037ca5	-0.032101292
21	0x3dc1e9a0	0.094683886
22	0xbda15692	-0.0787784
23	0x3cb34c60	0.021887004
24	0x3d64820d	0.05578809
25	0x3c281522	0.010258945
26	0x3d4c3de3	0.049863707
27	0x39c8ef01	0.00038325044
28	0x3d375b3f	0.044764753
29	0xbd317031	-0.043319885
30	0xbcbd0175	-0.023071984
31	0xbd49d1e4	-0.049272433
32	0x3dc49a08	0.09599692
33	0x3bcd3a1c	0.0062630307
34	0xbb49db11	-0.003080074
35	0xbcf65dc8	-0.030074015
36	0xbd2b3e6d	-0.04180758
37	0xbd959ae1	-0.073049314
38	0x3d4ff0b6	0.05076667
39	0xbc95dd40	-0.018293977
40	0xbbc09882	-0.0058775553
41	0xbdda197d	-0.10649393
42	0xbc9bab83	-0.019002682
43	0xbd4df643	-0.05028368
44	0xbd76d93a	-0.060265757
45	0x3d07a04e	0.033111863
46	0xbcd502f0	-0.026002377
47	0xbd8cb89c	-0.06871149
48	0x3c0b7a31	0.008513019
49	0xbd0e2880	-0.034706593
50	0x3ca9e6c4	0.02073992
51	0x3c99a7fc	0.018756859
52	0x3ba535c1	0.0050418084
53	0x3e0907db	0.13381903
54	0xbcc733b7	-0.024316652
55	0xbc9756be	-0.01847398
56	0xbce1b2ec	-0.027551137
57	0xbd142dfe	-0.036176674
58	0xbcb02183	-0.021500355
59	0x3ce27405	0.027643213
60	0x3cf38b70	0.029729575
61	0x3c36e857	0.011163793
62	0xbcd0d0a2	-0.025490109
63	0xbd9efbf1	-0.07762898

fc1.weight f4 [128, 64]
0	0x3dfc45b4	0.12317982
1	0x3d1b45e7	0.03790846
2	0x3d9f79be	0.07786892
3	0xbcd1fc86	-0.025633108
4	0xbea1a46e	-0.31570762
5	0x3d194e70	0.03742832
6	0xbced554e	-0.02897134
7	0x3e2658b9	0.16244783
8	0x3d0920ef	0.033478674
9	0xbdc78920	-0.097429514
10	0x3cd1b48e	0.02559879
11	0x3c73054d	0.014832807
12	0x3cec3693	0.028834617
13	0x3e34f8ab	0.17672984
14	0xbda8e82d	-0.08247409
15	0x3c0a73e9	0.008450487
16	0xbd8b6e2f	-0.06808125
17	0x3e0cf675	0.13765891
18	0x3d380ff7	0.0449371
19	0x3e07b1a5	0.1325136
20	0xbd9314a2	-0.0718167
21	0xbe5f50ad	-0.21808119
22	0x3cacd67b	0.021098366
23	0x3db8a8e6	0.0901659
24	0x3e31b720	0.17355013
25	0xbe280e36	-0.16411671
26	0xbdc48077	-0.09594815
27	0xbd63dda6	-0.055631302
28	0x3cd0b723	0.025477951
29	0xbd2c5ac4	-0.04207875
30	0xbd87e676	-0.06635754
31	0xbd9aad11	-0.07552541
32	0x3d551870	0.05202526
33	0xbd3c8854	-0.04602845
34	0x3ca81a20	0.02052027
35	0xbbd8852e	-0.006607673
36	0x3db72608	0.08942801
37	0xbddabc9a	-0.10680504
38	0x3dc60f11	0.096708424
39	0x3dece2ed	0.1156672
40	0x3da76976	0.08174412
41	0x3dcbcd6b	0.0995129
42	0x3e0527c8	0.13003457
43	0xbe042317	-0.1290401
44	0x3da8e420	0.082466364
45	0xbdf51d20	-0.11968446
46	0xbd9e7912	-0.07737936
47	0x3dcc1807	0.0996552
48	0xbd896e20	-0.06710458
49	0x3d6c9ce5	0.057766814
50	0x3d9438de	0.07237409
51	0x3d145df8	0.036222428
52	0xbe402097	-0.18762432
53	0xbe226987	-0.15860568
54	0x3d53061d	0.051519502
55	0xbe087d04	-0.1332894
56	0xbd0d945c	-0.034565315
57	0xbdcde16b	-0.10052761
58	0x3d54d952	0.051965065
59	0xbceb460f	-0.02871993
60	0xbdf79659	-0.120892234
61	0x3d3aa934	0.04557152
62	0x3d8b1ccb	0.06792601
63	0xbec120ab	-0.37720236
64	0xbe4fbae7	-0.20286141
65	0x3d93ee4c	0.07223186
66	0xbdce1df2	-0.10064305
67	0xbe10c31b	-0.14136927
68	0x3e221315	0.15827592
69	0x3da09d55	0.07842509
70	0x3e5d591b	0.21616022
71	0x3d4032fa	0.046923615
72	0x3d590941	0.05298734
73	0x3d875744	0.066084415
74	0x3df56119	0.119814105
75	0xbe3960e4	-0.18103367
76	0x3dd3b20c	0.10336694
77	0x3e1ce533	0.15321808
78	0x3cae530c	0.021279834
79	0xbd831bdd	-0.06401799
80	0xbd1e05bb	-0.038579684
81	0xbdb6cd21	-0.08925844
82	0xbe47910a	-0.19488922
83	0x3cc20ec4	0.023688681
84	0x3d14fdae	0.03637474
85	0xbded7ef9	-0.11596484
86	0xbdfad6fb	-0.122480355
87	0xbd11c75c	-0.035590515
88	0x3e2acbbb	0.1667928
89	0x3d07fcac	0.03319995
90	0xbd3fb595	-0.04680403
91	0xbd9feb9e	-0.07808612
92	0xbdd4ebf3	-0.10396566
93	0xbdbb67aa	-0.09150632
94	0x3dbc8fe2	0.09207131
95	0x3cff699f	0.031178294
96	0x3b827870	0.0039816424
97	0x3def49b6	0.11683981
98	0xbe029ae8	-0.12754405
99	0x3d00d000	0.031448364
100	0xbd61dd8f	-0.055142935
101	0xbace4269	-0.0015736345
102	0xbd2efb2a	-0.042719997
103	0xbd4c81f3	-0.049928617
104	0x3dafa7e0	0.085769415
105	0x3e4fb818	0.2028507
106	0xbde82a24	-0.11336163
107	0x3e345958	0.17612207
108	0xbdfa1f88	-0.12213045
109	0xbe080680	-0.1328373
110	0x3ccc3964	0.02492971
111	0x3d89e923	0.067339204
112	0xbd5612f0	-0.052264154
113	0xbd873a18	-0.066028774
114	0x3d766884	0.060158268
115	0xbdaf9b26	-0.08574514
116	0x3da01f98	0.07818526
117	0x3e93715d	0.28797427
118	0xbdc3d8b6	-0.09562819
119	0x3e6b2f23	0.229672
120	0xbd9ce348	-0.07660538
121	0xbbe28c64	-0.0069137085
122	0xbe0713ca	-0.13191143
123	0xbd13e618	-0.036108106
124	0x3cb6f834	0.02233515
125	0xbcaad323	-0.020852631
126	0xbca027c8	-0.01955022
127	0xbe23b3db	-0.15986578
128	0xbbd94ce9	-0.006631483
129	0xbd820677	-0.06348889
130	0x3b960c7f	0.0045791264
131	0x3d5143b2	0.05108995
132	0x3dcdb434	0.10044137
133	0xbd916c26	-0.07100706
134	0x3e9939b2	0.2992683
135	0x3e06e1ec	0.1317212
136	0xbde57abe	-0.11205052
137	0xbd83bde9	-0.06432707
138	0x3c348126	0.0110171195
139	0x3d7e8f4f	0.06214839
140	0xbe8ed4f8	-0.27896857
141	0x3d2dad1b	0.042401414
142	0xbc923d0d	-0.017851377
143	0xba5303e2	-0.000804959
144	0xbd88703a	-0.066620305
145	0xbda9e1ef	-0.082950465
146	0xbe749ad9	-0.23887195
147	0x3a67ee8d	0.00088474975
148	0xbbdba28c	-0.0067027267
149	0x3df48dde	0.119411215
150	0x3d1ec421	0.03876126
151	0x3dde71b0	0.10861528
152	0xbd3e7026	-0.04649367
153	0xbda6c6b5	-0.08143369
154	0xbd9d2f79	-0.0767507
155	0x3e76cbe4	0.24101216
156	0x3de6567b	0.112469636
157	0xbbcf91a9	-0.0063345027
158	0x3dbbc394	0.09168163
159	0xbdb44d6f	-0.08803832
160	0x3d9a65b7	0.07538932
161	0x3ddb981c	0.10722372
162	0xbd558dfb	-0.052137356
163	0xbdd9757e	-0.10618113
164	0xbdebb510	-0.11509144
165	0x3d17260d	0.036901522
166	0xbdd21c74	-0.10259333
167	0xbe4e0ccd	-0.2012207
168	0xbda392b9	-0.079869695
169	0xbe11f6e4	-0.14254338
170	0xbe20eb08	-0.15714657
171	0xbce3d39e	-0.027810868
172	0x3db7a9e8	0.08967954
173	0xbbbb85a7	-0.0057227197
174	0xbd6f4cec	-0.058422968
175	0xbdb074c6	-0.08616023
176	0x3dce112d	0.1006187
177	0x3cc1605d	0.02360552
178	0xbde9da86	-0.11418633
179	0xbe13f347	-0.14448272
180	0x3e80025d	0.25001803
181	0x3d8c9757	0.06864803
182	0xbd1bf006	-0.0380707
183	0xbdec6d78	-0.11544317
184	0xbd0759c8	-0.033044606
185	0xbcfc009d	-0.030762011
186	0xbd853599	-0.065043636
187	0xbcd6332e	-0.026147451
188	0xbba470a1	-0.005018309
189	0x3d00d437	0.031452384
190	0x3d1c3702	0.038138397
191	0xbdabeb57	-0.08394497
192	0x3cbe43b1	0.023225637
193	0x3c6e6fb0	0.014552996
194	0xbd40474c	-0.046942994
195	0xbd212990	-0.039346278
196	0x3d6eec9b	0.058331113
197	0x3d947bd3	0.0725018
198	0xbe6895da	-0.22713414
199	0xbdb22d6f	-0.08700072
200	0xbd6964ea	-0.056981005
201	0x3dbcb265	0.092137136
202	0xbd44cc66	-0.048046492
203	0xbd8d3ca7	-0.06896334
204	0xbd40d705	-0.04708006
205	0x3c565a04	0.013082985
206	0xbdfe2fc8	-0.12411457
207	0x3e04f8b2	0.12985495
208	0x3c985400	0.018594742
209	0xbe19e31a	-0.15028039
210	0x3e09e151	0.13464858
211	0xbc12148e	-0.008916033
212	0xbc8d3ee0	-0.017241895
213	0xbe140bb8	-0.14457595
214	0xbddb4b65	-0.1070774
215	0xbde76cb8	-0.11300033
216	0x3e2103cb	0.15724103
217	0x3e33525a	0.17511883
218	0xbe160bb4	-0.14652902
219	0x3e4c59bf	0.1995611
220	0x3e2f6937	0.1712998
221	0x3d2c4dba	0.042066313
222	0x3d1af4bc	0.037831053
223	0x3ce356b0	0.027751297
224	0x3d1204fa	0.035649277
225	0xbd60bcd0	-0.054867566
226	0x3de87e57	0.113522224
227	0xbc5a6dd0	-0.013331845
228	0x3caff950	0.021481186
229	0x3e5223d0	0.20521474
230	0x3b98194e	0.0046416884
231	0x3db0b9a6	0.0862916
232	0xbdad470e	-0.08460818
233	0x3d8e0539	0.0693459
234	0xbc279808	-0.010229118
235	0xbe030069	-0.12793125
236	0xbd36cb28	-0.04462734
237	0x3dee891f	0.116472475
238	0xbdb56157	-0.08856457
239	0xbe38d4f2	-0.18049982
240	0xbdc447ce	-0.09584008
241	0x3c883822	0.016628329
242	0x3b8123a0	0.0039410144
243	0x3e3726eb	0.1788594
244	0x3e5fa25e	0.21839282
245	0xbd02f32d	-0.03197019
246	0xbc8840e8	-0.016632512
247	0xbe4995f8	-0.19686115
248	0xbdd32c0e	-0.10311137
249	0xbda76957	-0.08174389
250	0xbd94b087	-0.072602324
251	0x3d82e452	0.06391205
252	0x3dc5e36c	0.09662518
253	0xbd046d10	-0.032330573
254	0xbdf98354	-0.12183252
255	0xbe81b5ca	-0.25334007

fc1.bias f4 [128]
0	0x3dc88f48	0.09792954
1	0xbd77b5f8	-0.060476273
2	0x3b5b5f5f	0.0033473594
3	0x3c4b652a	0.012414256
4	0x3da4a57b	0.080393754
5	0x3defb661	0.11704708
6	0xbc8eb61f	-0.017420826
7	0xbe19e050	-0.15026975
8	0xbd24e685	-0.040258903
9	0xbde2b11e	-0.11068939
10	0xbd408240	-0.046999216
11	0x3c4291cd	0.011875582
12	0x3d8fd963	0.07023885
13	0x3bf799ab	0.0075561604
14	0xbddf7afe	-0.10912131
15	0x3c566a76	0.013086906
16	0xbd8bc00b	-0.06823739
17	0x3db4c945	0.088274516
18	0x3d9d2b38	0.07674259
19	0x3e3c26ae	0.1837413
20	0xbd351954	-0.044213608
21	0x3d2b9658	0.041891426
22	0x3c859868	0.016308025
23	0x3cef5612	0.029215846
24	0x3d8fad36	0.07015459
25	0xbc5e7de6	-0.013579821
26	0x3da292cc	0.079381555
27	0x3e40e16a	0.18835989
28	0xbd28001e	-0.041015737
29	0xbc2c2529	-0.010506907
30	0xbc46a8d9	-0.012125217
31	0x3d765523	0.060139786
32	0xbccfb35c	-0.02535408
33	0x3cb64f41	0.022254588
34	0xbdcd6c76	-0.10030453
35	0x3e537997	0.20651852
36	0xbd103556	-0.035207115
37	0x3d5daa3c	0.054117426
38	0x3dcdd759	0.1005084
39	0x3e110ba3	0.14164595
40	0xbc3af4ae	-0.011410875
41	0xbe310e96	-0.1729072
42	0x3d65ee5a	0.056135513
43	0x3c8ce63e	0.017199632
44	0x3de9fc69	0.114250965
45	0xbdba3c62	-0.09093548
46	0x3b2c454b	0.002628642
47	0xbd452958	-0.04813513
48	0x3d3887ee	0.045051508
49	0xbdf3b522	-0.11899783
50	0xbcbb15f5	-0.022837618
51	0xbc1f4f2c	-0.009723466
52	0xbdd2631b	-0.10272809
53	0xbbd51dac	-0.0065037813
54	0xbdd751d7	-0.105136566
55	0x3e694af2	0.22782496
56	0x3d3640b3	0.044495296
57	0xbddf1e31	-0.108944304
58	0xbd920ec6	-0.07131724
59	0x3d947e67	0.07250672
60	0xbcd9484c	-0.026523732
61	0x3da3f494	0.08005634
62	0x3dbb4ca5	0.09145478
63	0x3d3717d2	0.04470045
64	0xbdc7ad61	-0.09749866
65	0xbd0cc3dc	-0.034366474
66	0x3e206a64	0.15665585
67	0x3de23fc2	0.11047317
68	0x3abf84b0	0.0014611688
69	0x3ddc407e	0.107544884
70	0x3dca21f3	0.098697565
71	0x3e51fcd1	0.20506598
72	0xbcee434c	-0.029084824
73	0x3dd6391e	0.10460113
74	0xbbe04d71	-0.0068451692
75	0xbace1f7c	-0.0015725936
76	0xbdd4808a	-0.103760794
77	0x3e6198db	0.22030966
78	0x3e8e1c16	0.27755803
79	0xbcc4c487	-0.024019493
80	0x3d3a51b9	0.045488093
81	0xbd8c2b3b	-0.06844183
82	0xbd4dd6c4	-0.050253645
83	0xbd1e232e	-0.03860777
84	0xbcb5caec	-0.022191487
85	0xbc901743	-0.017589217
86	0x3e386b63	0.18009715
87	0x3d1bc1b9	0.038026545
88	0xbd7abbb1	-0.061214153
89	0x3cff8599	0.031191634
90	0x3da4e1e3	0.08050897
91	0xbdbab248	-0.09116036
92	0x3d6dfb94	0.05810125
93	0x3d7ea3f6	0.062168084
94	0x3d17f01f	0.03709423
95	0xbcdf77fd	-0.027278895
96	0xbdf445d8	-0.11927384
97	0x3cd47b75	0.025937775
98	0x3d7abaf3	0.061213445
99	0x3e0a08d3	0.13479929
100	0x3e14968f	0.14510559
101	0xbad85fcd	-0.0016508043
102	0x3e3eeac5	0.18644245
103	0x3d73f66a	0.05956117
104	0xbe245c35	-0.16050799
105	0x3d563c3d	0.05230354
106	0x3da2d6d5	0.07951132
107	0x3e5a5f02	0.21325305
108	0x3c82b5b4	0.015955783
109	0x3db4bab4	0.08824673
110	0x3e4ba124	0.19885689
111	0xbcdef71a	-0.027217437
112	0xba947c4b	-0.0011328546
113	0x3dc616a9	0.09672291
114	0x3d8bc9cd	0.068256
115	0xbd23ddc9	-0.040006433
116	0x3c2de985	0.010614757
117	0x3d03f954	0.0322202
118	0x3c4440d7	0.01197835
119	0x3d4dbe54	0.05023034
120	0x3de5b782	0.11216642
121	0xbe29ea9a	-0.165934
122	0xbd07c7e3	-0.03314961
123	0x3d7b80e1	0.061402205
124	0x3ca44e81	0.020056965
125	0x3cb39d15	0.021925488
126	0x3db33547	0.08750396
127	0x3cd2c525	0.025728771

fc2.weight f4 [24, 128]
0	0xbe78c337	-0.24293219
1	0x3c80d5af	0.015726892
2	0x3dc745f8	0.09730142
3	0x3d96be49	0.07360513
4	0xbefb5f96	-0.49096364
5	0xbe28415f	-0.16431187
6	0xbd939a08	-0.072071135
7	0xbe61bd39	-0.22044839
8	0x3c109e16	0.008826753
9	0x3d2636d0	0.040579617
10	0x3c8734d0	0.016504675
11	0x3d5f55d2	0.054525204
12	0xbe208721	-0.15676548
13	0xbea6a7b1	-0.32549813
14	0x3d51b2ce	0.051195912
15	0xbe605b3a	-0.219098
16	0x3d83c01d	0.06433127
17	0x3d81b582	0.06333448
18	0xbe0afea9	-0.13573708
19	0xbed1f0ec	-0.4100412
20	0x3ba45e59	0.00501613
21	0x3de31fed	0.11090074
22	0x3c5285e8	0.012849309
23	0x3d8e06dc	0.06934902
24	0xbe7d6b3c	-0.24747938
25	0xbeb13411	-0.34610036
26	0xbd897cbc	-0.06713244
27	0xbe4da26d	-0.20081492
28	0x3d6b0bc6	0.057384275
29	0xbec47863	-0.38373098
30	0xbee5108c	-0.44739187
31	0x3db941d0	0.09045756
32	0x3d884882	0.06654455
33	0xbdbb0865	-0.091324605
34	0xbe8443f8	-0.25833106
35	0x3e0f968f	0.14022277
36	0x38091320	3.2681157e-05
37	0xbe28840f	-0.16456626
38	0x3d95a0e8	0.07306081
39	0xbdec43f4	-0.115363985
40	0xbdf782a7	-0.12085467
41	0xbda15c3a	-0.07878919
42	0xbf145042	-0.57934964
43	0x3cfdf1a3	0.03099901
44	0x3de2dd2f	0.11077344
45	0xbe0e7b25	-0.13914163
46	0x3da60d9d	0.08108065
47	0xbe34781d	-0.17623945
48	0x3c8bf9aa	0.017086823
49	0xbe7e1909	-0.24814238
50	0xbdc208f7	-0.09474366
51	0xbef3fb3b	-0.4765261
52	0xbe677675	-0.22603782
53	0xbe0b5213	-0.13605528
54	0xbf15fc9a	-0.58588564
55	0x3dc073ca	0.09397085
56	0xbe304ea9	-0.17217506
57	0xbec72a93	-0.3889967
58	0xbe5a1d05	-0.21300133
59	0xbeb03eb1	-0.3442283
60	0x3db9fe81	0.09081746
61	0xbe4a9348	-0.19782746
62	0xbe28104f	-0.16412471
63	0xbef91dce	-0.48655552
64	0xbedcc665	-0.43120113
65	0x3da0d526	0.07853155
66	0xbec0f022	-0.37683207
67	0xbe3b29de	-0.1827769
68	0x3dd79081	0.10525609
69	0xbea267de	-0.3171987
70	0x3e05bdd3	0.13060693
71	0xbd7fc609	-0.06244472
72	0x3c7d7845	0.015470569
73	0x3dc4e3c3	0.096137546
74	0xbe528f8e	-0.20562574
75	0xbea2f818	-0.31829906
76	0xbe5c086d	-0.21487589
77	0x3ca25aad	0.019818628
78	0xbe2bb31d	-0.16767545
79	0xbe47e605	-0.19521339
80	0xbd04f46a	-0.032459654
81	0xbda63d49	-0.08117158
82	0x3ddd8d26	0.108179376
83	0x3dd0151a	0.10160275
84	0xbec567a6	-0.3855564
85	0xbf09d4a6	-0.538401
86	0xbe70ec94	-0.23527747
87	0x3d1420a4	0.03616394
88	0xbda6ca61	-0.081440695
89	0x3e134b81	0.14384271
90	0x3d701f57	0.058623638
91	0xbdb2c7d6	-0.08729522
92	0x3d7c0185	0.061524887
93	0xbac97a0d	-0.0015371457
94	0xbe2a1399	-0.16609038
95	0xbdc972a2	-0.098363176
96	0x3d56a362	0.052401908
97	0xbe4541ab	-0.19263332
98	0x3d436e75	0.047712762
99	0xbaac9566	-0.0013167083
100	0xbe286b7c	-0.16447252
101	0x3d4266ce	0.047461323
102	0x3dcc88be	0.09987019
103	0x3d89a8f7	0.067216806
104	0x3d7590a0	0.05995238
105	0x3e0efe0d	0.139641
106	0xbedc3b9f	-0.43014237
107	0xbef391fd	-0.47572318
108	0xbd184f07	-0.03718474
109	0x3d7513d8	0.059833378
110	0xbdc80e7b	-0.09768387
111	0x3d48dbef	0.04903787
112	0xbda82743	-0.082106136
113	0x3d540de0	0.051771045
114	0xbf068d97	-0.525598
115	0xbddb97b2	-0.10722293
116	0x3d0c3073	0.034225892
117	0x3d9a3e2d	0.0753139
118	0x3dae82a5	0.08521012
119	0xbe945197	-0.28968498
120	0x3d82c92f	0.06386029
121	0xbeb90f62	-0.3614455
122	0xbe28dc75	-0.16490348
123	0xbebf6edb	-0.37389264
124	0xbe63b2c8	-0.22236168
125	0x3d9fd81d	0.07804892
126	0xbe7699f9	-0.24082173
127	0xbe441481	-0.19148447
128	0x3e4337dd	0.19064279
129	0x3e0e8690	0.13918519
130	0xbdcf875c	-0.101332396
131	0xbd81f400	-0.063453674
132	0xbe8eeed9	-0.279166
133	0xbe3a1937	-0.18173681
134	0x3d5738f8	0.052544564
135	0xbe37c7a4	-0.1794725
136	0xbcf01d8d	-0.029310966
137	0xbe802318	-0.25026774
138	0xbda845a3	-0.08216407
139	0xbd5ed75c	-0.0544046
140	0x3e0cf1ef	0.13764165
141	0xbe6e1d79	-0.2325343
142	0xbe5034af	-0.20332597
143	0xbc0e6ebb	-0.008693392
144	0xbdf5db19	-0.1200468
145	0xbd8f91ae	-0.07010208
146	0x3dbbd35f	0.09171175
147	0xbeeab81a	-0.45843583
148	0x3d1cdfaf	0.03829926
149	0xbe01bfe6	-0.1267086
150	0xbd339ae5	-0.04384889
151	0xbe836bcd	-0.25668183
152	0xbeabc0a7	-0.3354542
153	0xbe807a27	-0.25093195
154	0x3d1d50d7	0.038407173
155	0xbf0bf25c	-0.54666686
156	0xbd6d6f8c	-0.057967708
157	0x3daa9171	0.08328522
158	0xbe49bdec	-0.19701356
159	0x3bf7a0ee	0.007557026
160	0x3dcd7da5	0.100337304
161	0xbdff0662	-0.12452389
162	0x3dfe9196	0.12430112
163	0x3d6c373e	0.05766987
164	0xbea8f397	-0.32998344
165	0xbe037ab9	-0.12839784
166	0x3db4e66a	0.088330105
167	0x3d999edc	0.07501003
168	0xbee123ae	-0.43972534
169	0xbf170025	-0.58984596
170	0xbf36962b	-0.7132289
171	0xbbf9e148	-0.0076257326
172	0x3d1b5c9e	0.037930124
173	0xbeafab49	-0.34310368
174	0xbe09322f	-0.1339805
175	0xbeab6d96	-0.33482045
176	0x3d9b66ec	0.0758799
177	0xbe8fe2a2	-0.28102595
178	0xbe7ce709	-0.24697508
179	0xbca01b69	-0.01954432
180	0xbdeb1d42	-0.1148019
181	0xbd9887c1	-0.07447768
182	0xbeaa55a8	-0.33268476
183	0x3e100e02	0.14067844
184	0xbe271c44	-0.16319376
185	0xbea1c2ac	-0.31593835
186	0xbeda9f38	-0.426996
187	0xbe97d5a4	-0.29655182
188	0xbddc5627	-0.1075862
189	0xbe2499ec	-0.16074342
190	0x3d028556	0.03186544
191	0xbeb3f501	-0.3514786
192	0xbdae98fb	-0.085252725
193	0x3d177558	0.036977142
194	0x3e30df7a	0.1727275
195	0xbe841403	-0.25796518
196	0x3cd63b80	0.026151419
197	0xbf127b2f	-0.57219213
198	0x3df41f53	0.11920037
199	0x3e44f7ba	0.19235125
200	0x3d90a2ee	0.07062326
201	0x3d376135	0.04477044
202	0xbeb5b286	-0.35487765
203	0xbca4249c	-0.020036988
204	0xbeaa0824	-0.33209336
205	0x393b25de	0.00017847816
206	0x3dab35b4	0.083598524
207	0x38cd41a0	9.787385e-05
208	0xbd815062	-0.0631416
209	0xbced70d1	-0.02898446
210	0x3e07cd40	0.1326189
211	0xbc22b20e	-0.009930147
212	0x3d491295	0.049089987
213	0x3d105d14	0.035245016
214	0x3df8efa2	0.12155081
215	0x3dda91c9	0.106723376
216	0x3d42019b	0.047364812
217	0xbc47a112	-0.012184398
218	0x3cba26ce	0.022723582
219	0xbdc2d5ce	-0.09513436
220	0xbd5cdd4b	-0.05392198
221	0xbdf0b6f2	-0.11753644
222	0x3d9ef490	0.0776149
223	0xbe942a2f	-0.28938434
224	0xbe804011	-0.2504888
225	0xbe906abc	-0.28206432
226	0x3d486414	0.048923567
227	0x3d18148a	0.037128963
228	0x3d4b0036	0.049560748
229	0xbe06f4b2	-0.13179281
230	0x3e14c61d	0.14528699
231	0xbde991fc	-0.114047974
232	0xbdbe2b36	-0.092855856
233	0xbdba5db7	-0.09099906
234	0x3d4ed475	0.050495584
235	0xbed07389	-0.40713146
236	0x3e27b3d1	0.16377188
237	0x3d537f04	0.051634803
238	0x3daf1df2	0.085506335
239	0x3d2e50da	0.042557575
240	0xbcd68c4b	-0.026189944
241	0xbda82d3e	-0.08211754
242	0xbdd2aa41	-0.102863796
243	0x3e093572	0.13399294
244	0x3dac40d1	0.084108
245	0x3e214b20	0.15751314
246	0xbe8de2ac	-0.27712
247	0xbece50bd	-0.40295973
248	0x3dea22a5	0.11432389
249	0xbeb55b98	-0.35421443
250	0xbe5b9dba	-0.21446887
251	0xbc3d2613	-0.011544722
252	0x3d9d0a4f	0.07667982
253	0x3cc6695b	0.02422016
254	0xbf014663	-0.50498027
255	0x3dd32208	0.10309225

fc2.bias f4 [24]
0	0xbd14907e	-0.03627061
1	0x3e4bcd35	0.19902499
2	0xbda7af0b	-0.08187684
3	0x3dab8760	0.0837543
4	0xbd514a9c	-0.051096544
5	0xbd54c75a	-0.05194793
6	0x3cd0eb7f	0.025502918
7	0x3e0809a3	0.13284926
8	0x3dd29d53	0.102839135
9	0xbe1dbedb	-0.15404837
10	0xbd4e2330	-0.050326526
11	0xbdd9d64f	-0.10636579
12	0xbc72362c	-0.014783423
13	0x3c8111f2	0.015755627
14	0xbe7651cb	-0.24054639
15	0x3ddc8c0b	0.107688986
16	0xbce10cea	-0.027471978
17	0x3d75a6b8	0.05997345
18	0x3da83ae3	0.08214357
19	0x3dab4282	0.08362295
20	0x3def802a	0.11694367
21	0xbce619ef	-0.028088538
22	0x3daf63c2	0.08563949
23	0x3cf0d310	0.029397517
