best_asl_model.pth (torch, 272474 bytes, 10 tensors)

conv1.weight f4 [32, 1, 3, 3]
00000000: bd79 c7bd 1d6a b83e 0cd4 7c3e 93e9 833e
00000010: c1d8 003e f161 cd3e 6831 8c3e 41fb e03e
00000020: 2f6a 00be 6ed0 dcbd 165c 23bf bac8 81be
00000030: c8ee aebe 3dd4 dfbd d203 4a3e 09ef c83d
00000040: d2fc fb3e afa7 033f 322c dd3e 3500 253f
00000050: e9a4 dabe 1d99 f3bd 0f9a 183e 848a 4abe
00000060: 296e 80be dcb2 803e 1108 63bf f10e 073e
00000070: e5c7 cfbc 717c 763e bd07 e23e 23e6 753e
00000080: cbe6 593d cf02 ba3e 1515 a13e e1b5 75be
00000090: 2d10 30be 5f6c 3abe 1dd7 2aba 0a93 dabe
000000a0: 0904 05be ea8b 16bf bb97 6cbd 6bdc 84be
000000b0: 58f2 21bf 151d 14bf c675 e2be 4c69 c43e
000000c0: 0ada 423d cfad ec3e 2ce2 f73a 604b ae3d
000000d0: 8bf3 ed3e a664 c53e e8c8 7abd 6f82 013f
000000e0: 00d5 3bbf f29b 4cbe 2e7d fe3e 42b1 2bbf
000000f0: 9d89 be3e 30f6 023f c499 ecbe 178d a0be
00000100: 2314 8bbe 0ce9 bdbe b1ac 5f3e 6557 c6be
00000110: 2c24 5b3e 29c2 a9be ce83 303c 538c babe
00000120: 4e31 093f 4140 bcbe 5bd7 743e 8af4 223e
00000130: 92cb 19bf a0a5 e13d a381 5fbe ac5c 40bf
00000140: 6e96 283f 6253 50be f063 3b3e 0c6f 8e3e
00000150: 98e5 aa3e 1b22 683e 10a0 763e 8aba f0be
00000160: 4f4e 02bf 4320 debe 0bac 423e 3995 ba3e
00000170: f260 723e b96f bb3d 9ca7 043f 3998 343c
00000180: ad98 d03e 5fe6 06be d42f ab3e 189b 3c3d
00000190: 3450 9abe 7881 2cbf 167f cc3e 3bf4 633e
000001a0: 74e5 debe e661 d03e eaf5 063f 67fb 5a3c
000001b0: 04ea 1bbe 3f1c dcbd 2b69 583e 79ce 2cbe
000001c0: 19b8 b2bd dc2c 0e3f a9f5 03bf d3a5 cdbd
000001d0: e093 173f 9a4a c4bd ed0a f43d 3bfb a73e
000001e0: 4650 013e 25c5 dbbd 7360 4d3e bab1 d2be
000001f0: d6c3 98be 4161 25bf 119b f5be cfec 9bbe
00000200: f074 a7be 1a6a c6be dd25 d4be af31 ecbe
00000210: a085 aabe e9d8 36be c6da 99be 002c 44bd
00000220: d02a 1c3e 64c2 f83e 8ff3 11bf d096 8bbe
00000230: 2d45 ff3e 80e2 a6be cdc6 5abe 21fe d93e
00000240: 6c6b 303e 4449 f93e 1392 df3c 2319 653e
00000250: 458a 78bd 346d f13d db20 543e 0720 e0bb
00000260: 9271 4e3e d585 9fbe 4356 5cbe 586f d33e
00000270: 74c2 3ebe 53c8 063f ba02 063f df54 b03e
00000280: 8e3a 013f 2e69 ea3e fd9c 2b3f 4a9c 8a3e
00000290: 02bb d13e 3db1 71be e697 03bf 59c4 793d
000002a0: 8385 98be 2006 d0be 9480 10bf 9f93 de3e
000002b0: c835 67be b823 05bf 1195 da3e a29b 233e
000002c0: c270 13bf b57f 213f 53ce 46be 437f b1be
000002d0: 48a9 9dbe 9979 2e3e 05a2 11be af14 11be
000002e0: bac4 ddbe 91c9 86be ab52 9bbe f532 f5bd
000002f0: 0427 f4be ec43 0bbf d9e9 4fbe a785 efbe
00000300: 98a0 d6be fe15 633e 6a5b 573e 9a68 c3bc
00000310: 4ec9 293f 3243 243f 7263 293f c552 35be
00000320: f411 6c3d deb4 c63d 5027 2cbf ef90 92be
00000330: fc39 843e c87b 38bf aa69 0d3f bf45 413d
00000340: d6c8 743e 794b 2cbf e6f3 023e 3a00 163e
00000350: a401 58be cb8b e23e 50c5 c43e d814 b3be
00000360: a016 c83e b5d7 273e a9fb f43e 2ba3 51be
00000370: 99b6 663e 10a6 21bf 39c0 b73b 3b85 d4bd
00000380: ded7 37bf ceb5 953d cf6d 0b3f 3eb0 573e
00000390: 2a09 e2be b2ff 74be 08ed 193f 45c0 01bf
000003a0: 3255 25bf 5379 1c3f 51d4 dc3e ac4b f3be
000003b0: d3be d2be 6248 2a3f d50d 653e eabb 5fbf
000003c0: 6508 833d 3506 9abd ae92 ec3d 6a3d 403e
000003d0: cdc1 8a3e 962e 20bf b409 d33d 7eeb c43e
000003e0: c9ab 31bf c33b 903e a0c7 063f b89b 27bf
000003f0: 7f97 8b3e b478 a5be 7acf c4be 2d50 123f
-0.097400166 0.36018458 0.24690264 0.2576414 0.12582685 0.40113786 0.27381444 0.43941692
-0.12540506 -0.10781942 -0.63812387 -0.25348455 -0.3416655 -0.10929153 0.1972802 0.09811217
0.49216324 0.5142774 0.4319778 0.6445344 -0.4270394 -0.118944384 0.14902519 -0.19779402
-0.25084046 0.2513646 -0.88684183 0.13189293 -0.025363872 0.24070908 0.4414653 0.24013571
0.053198617 0.36330268 0.31461397 -0.23995163 -0.1719367 -0.18205403 -0.000651704 -0.42690307
-0.1298982 -0.5880724 -0.05776189 -0.25949416 -0.6326041 -0.57856876 -0.4423048 0.38361585
0.04757122 0.46226355 0.0018912009 0.085104704 0.4647487 0.3855335 -0.061226755 0.5058965
-0.7337189 -0.19981363 0.4970488 -0.6706735 0.37214366 0.511569 -0.46211064 -0.31357643
-0.271638 -0.37091863 0.2184322 -0.38738552 0.21400517 -0.33155945 0.010773612 -0.36435184
0.5359086 -0.36767772 0.23910277 0.15913597 -0.6007625 0.110179186 -0.21826796 -0.75141406
0.6585454 -0.20344308 0.18299842 0.27819097 0.3337829 0.2266926 0.24084496 -0.47017318
-0.5090074 -0.4338399 0.19010942 0.36441973 0.23669794 0.09152169 0.5181825 0.011022621
0.40741482 -0.13173817 0.33434927 0.046046346 -0.30139315 -0.67385054 0.3994071 0.22261135
-0.43534434 0.4069969 0.52718985 0.013365603 -0.15225989 -0.10747575 0.21133868 -0.16875638
-0.0872652 0.555372 -0.5154672 -0.10041394 0.59210014 -0.095845416 0.119161464 0.3280886
0.12628278 -0.10730962 0.20056324 -0.4115122 -0.2983691 -0.6460152 -0.4796987 -0.30454108
-0.32706404 -0.38752824 -0.41435137 -0.46131656 -0.33305073 -0.17856182 -0.30049723 -0.047893524
0.15250707 0.48585808 -0.57012266 -0.27263498 0.49857464 -0.3259468 -0.21364899 0.42576697
0.17228478 0.4868871 0.027291333 0.2237287 -0.06067874 0.11788407 0.20715658 -0.0068397555
0.20160511 -0.31156793 -0.21517281 0.41295886 -0.18628865 0.5264942 0.5234791 0.34439752
0.5047997 0.4578337 0.6703642 0.27072364 0.40962988 -0.23602767 -0.51403654 0.060978267
-0.2978936 -0.40629673 -0.56446195 0.43472 -0.2257911 -0.5200763 0.42691854 0.15977338
-0.5759393 0.6308549 -0.19414644 -0.34667405 -0.30793214 0.17038573 -0.14221962 -0.14168046
-0.43314153 -0.26325658 -0.30336508 -0.1197261 -0.47686017 -0.54400516 -0.2030405 -0.46781656
-0.41919398 0.22176358 0.21030965 -0.023853589 0.6632279 0.6416503 0.66167367 -0.17707355
0.05763431 0.097024664 -0.67247486 -0.286262 0.2582549 -0.72063875 0.55239356 0.047185656
0.23904738 -0.6730266 0.12788352 0.14648524 -0.21094376 0.4424728 0.38431787 -0.3497684
0.39079762 0.1639088 0.4784825 -0.204724 0.22530593 -0.63144016 0.0056076315 -0.10376974
-0.7181376 0.07310067 0.5446443 0.21063325 -0.44147617 -0.23925665 0.60127306 -0.50684005
-0.6458312 0.61122626 0.43130735 -0.4751867 -0.41161212 0.665167 0.22368558 -0.8739611
0.063980855 -0.07520715 0.115514144 0.18773428 0.27100983 -0.62571084 0.10304585 0.38460916
-0.6940275 0.28170595 0.52648354 -0.6547198 0.2726402 -0.32318652 -0.38439542 0.5715359

conv1.bias f4 [32]
00000000: 3674 683e 99ea 373e 03b0 e73d 4689 94be
00000010: 8121 7abd ef76 03be a9a3 b43d 785d 9c3e
00000020: 615b 0d3e 60e6 8c3e ad49 273e e6bb ff3d
00000030: fea9 933e 2d58 c03e 67f9 91be 9cdd 673e
00000040: d743 6e3e 607a a23d 1ac7 343e adba 473e
00000050: ba7a 22bd 62b6 d6bc 80af 4b3e 4cf2 653d
00000060: 6993 8e3e 2f78 263d 5a21 043e 264b 163e
00000070: 20ff 143e 160c 83be 710f d33e dd3b 47bd
0.22700581 0.17960586 0.113128684 -0.2901098 -0.061067108 -0.12838338 0.08820278 0.3054006
0.1380439 0.27519512 0.16336699 0.12487011 0.2884063 0.37567273 -0.2851059 0.22643131
0.23268066 0.079334974 0.17654076 0.19504805 -0.039667822 -0.026210014 0.19891167 0.056139275
0.2784684 0.04064196 0.12903348 0.14677104 0.14550447 -0.25595158 0.41222718 -0.048641074

conv2.weight f4 [64, 32, 3, 3]
00000000: 0e57 ce3d e4e2 b53d ef55 4fb9 57e1 0e3e
00000010: 3144 6c3c 55d6 1ebd b8bc 533d e9e3 cdbd
00000020: 41c3 62bd c645 773e bb79 2e3e 6995 00bd
00000030: b890 3c3d fdb5 65be dcda 71bd 3c4c d1bd
00000040: 5267 693d 02b7 253e 4d89 fcbd d891 08be
00000050: 0532 b03c 0d49 cd3d 9e38 55bc f27d c53d
00000060: 95d7 143e 187d 443d 4cd5 5c3d 465f 213e
00000070: d97b 203e d6bb 193d 8ece 9f3d 6ff7 9f3d
00000080: 7338 0bbc bde0 533d dc8d dabd c044 2dbe
00000090: e2af 8ebe 3980 38be 87f3 0e3e 3339 05be
000000a0: c9ed 853d 687e 3b3e 2bc7 83bc 975c bd3d
000000b0: 0aa4 b1bc 2adf 763e a346 333e 07de 983d
000000c0: aaf9 1b3e 9d57 f5bd dd31 14be c6d0 323b
000000d0: 7a02 35be 3da6 a3bd bb93 43be c44b 9dbe
000000e0: b9ce 73be 44a1 93bc 67f8 1cbe b268 35bb
000000f0: 8b96 3fbc 2100 96bd b2df 18bd 454c 15bd
00000100: e6d7 a6bd c6ad 7a3d 0812 f9bd 06be aa3d
00000110: 580d 053e 5c01 f43c 3b91 1a3e af07 dc3d
00000120: c3e0 09be ec0e 29be 22f5 37be 4df6 b3be
00000130: fbd2 0d3e 9087 2a3d 39cb 83bd e9e9 883d
00000140: 3836 803c 2837 80bd 81b9 e23c 7555 a03d
00000150: d2bf f2bc c1cb c53d 5589 0d3e 79fa b73d
00000160: 6ae4 003e cf0c f83c dc31 f63d f491 0d3e
00000170: fe00 633d 65bf a13d 3975 143b 1f8a 8fbd
00000180: 29e6 943d 9fd7 8dbd dace c3bd 69c7 11bd
00000190: 4027 a43c 4539 c43b 5c43 9d3c 30be 11bd
000001a0: 3ce3 94bd 1d1c 7a3d cb92 d8bd 4582 28be
000001b0: 7269 0d3d 3758 153d 93e6 1bbe 9be1 013c
000001c0: c66f fdbd aeba 2ebe ace1 14be 4e00 ebbd
000001d0: 73ad 4bbd 0140 8ebd 365d b23c abd6 b83d
000001e0: bb5f c1bc 9aa4 283e d70b a03d 579e 9a3d
000001f0: 2f2b 083e a5bd cb3c 89a4 09be 3e87 73be
00000200: dea1 f93d bd3b 84be 412f 763c 166c 083e
00000210: 587e 9fbc df69 bf3d ce7e 6d3d afc2 123d
00000220: 7a8d 84bd 339b 5fbe fa20 98bd c327 b7bd
00000230: 3019 cdbd d724 32be f22e 85bd 7591 36bd
00000240: 9f9a 093d 1db7 f13d b3f5 a53d eaa6 a83d
00000250: 3aee 9a3d 5073 adbd 42e3 ec39 20d5 a4bd
00000260: dbaf eabc b49e ee3d 6d25 ea3d b6af 08bc
00000270: 66ff 123e 63cb 7bbd 68b8 e6bd 9ecf 5dbc
00000280: 6b86 12be 663b 2dbd aec0 00be fddf a8bc
00000290: 2ccf 393d 84f6 dcbd 8994 683e 2799 8e3d
000002a0: f057 143d ba91 243e 3f32 fc3c 377f 04be
000002b0: e1c6 d4bd b00d a0bd a1e6 e83d a06c 1bbc
000002c0: 9136 98bc be0a 1d3e 9ac3 4dbb 728d a2bb
000002d0: 771e 53be 8bab e2bd f0e2 9f3d c5f6 1fbe
000002e0: 1a8f 8c3d cd41 e03d 1cfb 0abd 5d24 fe3d
000002f0: b5be 033c a800 b83e 6304 803e 9067 e4bd
00000300: 4be3 613e a07a e6be d31d 6fbd 540e 7f3c
00000310: 7dfd b23d 41b1 6f3e b724 1dbe 340d babd
00000320: 283f edbd 8434 20be fdb3 e83d 9c37 b43d
00000330: 7790 0c3e 299e ec3d 05b8 483c 1104 713b
00000340: 29e4 c5bb 07f3 8cbc eca2 d13d 507a cdbd
00000350: d5f1 f5bd 3829 db3d 85eb 12bc db85 f1bd
00000360: 462d ebbc 4945 93bd acf4 3c3d 0f54 153e
00000370: 19f8 a53d 3150 a33d ea23 ae3d 45d0 e23d
00000380: c5df ed3c 33d8 5dbe 0dae 42be f01b 9bbe
00000390: 9e0a bdbe 0f66 41bc 0a1f e83b c050 87be
000003a0: deaf 0cbd c34e dcbd 4698 94be c29e 1cbe
000003b0: beca 2dbd d73f b2bd 14fe 67bd bb6a 67bb
000003c0: ea89 da3d e621 813d df71 ac3c 5638 4cbe
000003d0: 2548 68be 31b7 21be de77 d03d 3510 36bd
000003e0: 5ef3 213a e07d ca3d fcd0 47bc 17cc a9bd
000003f0: ed95 00bf 98a6 87be 27a6 efbb 13c1 4ebe
0.10075198 0.088811666 -0.00019773071 0.13953148 0.014420555 -0.03877862 0.051693648 -0.10053236
-0.05536199 0.2414771 0.17038624 -0.03139249 0.046036452 -0.22432704 -0.05904661 -0.10219619
0.0569833 0.16183093 -0.123308755 -0.13336885 0.021508226 0.10023699 -0.013013987 0.09643163
0.14535363 0.04797086 0.053914353 0.15759 0.15672244 0.03753265 0.07803069 0.07810866
-0.008497345 0.051728 -0.10671589 -0.16920757 -0.27868563 -0.18017663 0.13960086 -0.13010101
0.065394945 0.18309939 -0.016086182 0.09246176 -0.021684665 0.24108568 0.17507415 0.07464223
0.15231958 -0.119796015 -0.14472146 0.0027285083 -0.17676726 -0.07990692 -0.19099323 -0.30721867
-0.23809327 -0.018021233 -0.15329133 -0.0027680811 -0.011693607 -0.07324243 -0.037322707 -0.03644969
-0.08146648 0.06120088 -0.12161642 0.08337025 0.12993371 0.029785804 0.15094464 0.10743653
-0.13464646 -0.16509598 -0.17964604 -0.3514885 0.13850014 0.04163319 -0.06435246 0.0668524
0.015650854 -0.0626052 0.027676346 0.078288 -0.029632483 0.096580036 0.1382192 0.08983321
0.12587133 0.030279545 0.12021229 0.13825208 0.055420868 0.07897834 0.0022652878 -0.070087664
0.07270462 -0.06925892 -0.09560938 -0.035590563 0.020038247 0.0059882724 0.019197159 -0.035581768
-0.07269904 0.061061967 -0.105748735 -0.16455944 0.03452439 0.03646108 -0.15224676 0.007927324
-0.12374835 -0.170634 -0.14539212 -0.114746675 -0.04972596 -0.069458015 0.021772962 0.0902532
-0.023605218 0.1646904 0.07814758 0.07549732 0.13297723 0.024870703 -0.13441671 -0.2378206
0.12189077 -0.25826827 0.015025915 0.13322482 -0.019469425 0.09346365 0.05798226 0.035830196
-0.06472297 -0.21836548 -0.07428165 -0.08943131 -0.1001457 -0.17396866 -0.06503095 -0.044572312
0.033594724 0.11802504 0.08103504 0.08234961 0.07564969 -0.0846926 0.00045182748 -0.08048463
-0.028648308 0.11651364 0.1143292 -0.008342674 0.1435524 -0.06147326 -0.112656415 -0.013538269
-0.14309089 -0.042292975 -0.12573501 -0.020614618 0.04536359 -0.107892066 0.22712912 0.06962805
0.036216676 0.16071215 0.030785678 -0.12939154 -0.10389496 -0.07815111 0.11372114 -0.009486347
-0.018580707 0.15336129 -0.0031397105 -0.0049607093 -0.2061709 -0.110678755 0.07806957 -0.15621479
0.06863232 0.109500505 -0.033930883 0.124092795 0.008041074 0.35938 0.25003347 -0.111525655
0.22059362 -0.4501543 -0.058378052 0.015567381 0.08739755 0.23407461 -0.15346037 -0.090845495
-0.11584312 -0.15645033 0.11362455 0.08799669 0.13726984 0.11553604 0.012250905 0.0036776105
-0.0060391617 -0.017205728 0.10236153 -0.10033095 -0.120090164 0.10701221 -0.008967285 -0.11793109
-0.028708111 -0.071909495 0.046131775 0.14582847 0.081039615 0.0797428 0.08502944 0.110748805
0.029037366 -0.21664505 -0.19011708 -0.30294752 -0.36922163 -0.011804118 0.0070837783 -0.26428795
-0.034347408 -0.1075721 -0.29022425 -0.15294936 -0.04242968 -0.08703583 -0.056638792 -0.003531142
0.10670836 0.06305294 0.021050392 -0.19943365 -0.22683771 -0.15792538 0.10179113 -0.04444905
0.0006177927 0.0988729 -0.012195822 -0.0829088 -0.5022877 -0.26494288 -0.007313508 -0.2019084

conv2.bias f4 [64]
00000000: 6039 55bd adf0 6ebd a2c4 bd3c f665 b7bc
00000010: a5e9 8bbd 7be6 6cbd e5c3 8cbc a710 12be
00000020: 1930 72bd 5279 b0bc b2ee 17bc 81cd c3bc
00000030: 52d8 cfbc 1cbd 033b 7db8 1e3c 5043 06bd
00000040: 8e06 683c 0859 f5bc 664b b1bd 0932 e0bc
00000050: 9461 fabc 0f7f 4d3d d381 35bd e2ff 053d
00000060: 5771 bbbd fbbe 8cbd dda5 0ebd f315 75bc
00000070: e320 f5bd b1ed 89bd e8d7 c1bc f064 263c
00000080: ba2b 92bd 6e6e a4bd cb7f 80bd 446a 0abe
00000090: 0e81 d0bc 1c2c 81bd 1517 aeba 20ce cfbd
000000a0: 5bcd 163e 03f7 ddbd 63b1 c93d c4c9 2fbd
000000b0: 8d54 7bbd c4bf 303d 7f32 98bc dfed 563d
000000c0: 0dfa 2a3e 92ec 11be d3c2 b0bd b56f c2bb
000000d0: 76ac 243d 3418 153d 7429 d23b 6a0a 1bbe
000000e0: 2467 0b3e 551b b23c e079 80bb ab59 aa3d
000000f0: 7b4c 0abd 19b9 1f3d 64db cabc 6b26 72ba
-0.05205667 -0.058334995 0.02316505 -0.022387486 -0.068316735 -0.05783699 -0.017183254 -0.14264165
-0.0591279 -0.021542225 -0.009273218 -0.023901703 -0.025371704 0.0020101732 0.00968754 -0.032779038
0.014161719 -0.02994968 -0.08656959 -0.027367609 -0.030564107 0.05017 -0.044313263 0.032714732
-0.09152477 -0.06872364 -0.03482615 -0.014958846 -0.11969163 -0.06734789 -0.023662522 0.010155901
-0.071372464 -0.08028875 -0.062743746 -0.135171 -0.025452163 -0.06307241 -0.0013282025 -0.10146737
0.14726774 -0.10838129 0.09848287 -0.042917028 -0.06135993 0.043151632 -0.018578766 0.052472945
0.1669695 -0.142504 -0.0863091 -0.0059337267 0.040203534 0.036400035 0.006413633 -0.15140691
0.13613564 0.021741549 -0.0039207786 0.08317884 -0.033764344 0.038994882 -0.024762817 -0.0009237292

conv3.weight f4 [64, 64, 3, 3]
00000000: 5ee3 2cbe 0351 373e 20d6 a03e f8e7 093b
00000010: 6bdc 1d3e 40d0 ccbd 46ee 383d 7542 a8bb
00000020: 9778 0f3d e63a a03e 4a02 3c3e fbe2 853e
00000030: 9474 08be c4a1 fe3c f2b2 febd e4c0 d2bd
00000040: 145f c6bd 7e3f 7ebe e63b 3d3c e8df edbc
00000050: 0051 cc3b ebd2 fb3c e652 fdbc c6cd 23bc
00000060: 25e9 03bd fb42 703c e664 6abc c768 6c3e
00000070: 48fc 983e 430b 8c3e 28c9 ecbd f4c9 9d3d
00000080: e313 85bd b59f 24be c688 cabd 20ab bebe
00000090: da3c 6ebd 4fa2 debc ca38 7ebe 2257 4f3c
000000a0: e9cf d6bc 2f75 04be 2a6a 043e 619d 763d
000000b0: 663a f63b aaa2 a03d 88cf a8bd e956 3e3e
000000c0: c83d 053e cd7c 28bc 9131 6c3c 133d 1abc
000000d0: 04d0 3f3e f309 473c cfd5 1aba 83d4 f0bc
000000e0: 17a4 683b 8fc1 16bc 2b8c f73c 30fb 00bd
000000f0: 84b3 bf3c 05ae 92bc 5b7d cdba 280a a4bd
00000100: 676f aebc 2c20 99bd 75e4 d4bd f150 48bd
00000110: e477 96bd 4a9b 903d d3a2 d5bc 3a17 813d
00000120: ca2b b53e f0f2 693e caab a33e c049 d9bd
00000130: f156 0d3e 8850 0abd 9b31 4cbd 7885 44bd
00000140: d9e9 77be 4c88 293d 6886 69bd 0328 0abe
00000150: 3db0 eb3d bdfd 4c3c 6f77 4abd c217 c8bd
00000160: 3776 0f3e 1896 ca3d f358 67bd ac44 d5bc
00000170: bd4a f03d 6180 d23c c3d9 31bd 697e cabc
00000180: ef8d 2ebd 6200 c9bd 06f7 033d af8f 0e3e
00000190: 3479 2dbd 0d80 2a3e b150 13bd 489b c6bd
000001a0: 30a8 c0bd bb71 343d 606f 4abd 7314 5ebe
000001b0: 56ce e1bc 1c2c 0a3c 4e99 9c3c 0456 3dbd
000001c0: f600 82bd 4222 b3bd 283e 343e 41d4 a33d
000001d0: 41bb 163e 21cb 953c d9d4 bbbb 3bc1 69bc
000001e0: a51e 563c 24e0 f3bd fabc 04bc cae0 6cbd
000001f0: de4a 9ebd de57 8abd 60aa 043e e3dd 9a3e
00000200: de2d 693e 743b d7bd e985 fd3d 35f1 a83c
00000210: 90d9 74be 002d 6fbc 34a8 62be 473b 0fbd
00000220: d531 8a3d da6e fbbd 8369 0dbd 2aff 45bc
00000230: b234 febd 0591 9abd c67f 203d 0156 6cbc
00000240: 1dd7 263d 78de 29bd 03f2 43bd 8144 a23d
00000250: 3665 013d ec45 073d 5a38 ad3b 96a5 463d
00000260: 273a 9cbb a140 893c 1f46 d1bc 66ac 61bc
00000270: d81e 0abd ae25 a6bc 98df 06bc 1275 fc3a
00000280: 94a8 1ebd ab81 02bc f9db 953d 8717 b1bb
00000290: 4392 f33d 6de1 79bc 4dd8 b7bc 2285 c9bd
000002a0: c035 123d c704 583d 87c6 bfbd 3688 92bd
000002b0: e3ad 4e3c 6e2d c6bc 7822 56bd cb67 a83d
000002c0: 751c 7fbd c456 883d 7780 1d3d b884 babd
000002d0: b27f 2f3c 8182 c3bc 1a5c 69bc 8726 a13c
000002e0: acdb 4c3c 1e14 1b3d 894e db3c c7e4 c53c
000002f0: d05f 833b 3410 8e3b 0c34 133a 1428 163d
00000300: 9068 f8bc 0535 c6bd 2ea7 fbbc a98c 793e
00000310: dcbc 923a 1a87 a43d ca3c 383e 9195 373e
00000320: 8284 f13d 1549 edbc d424 a33d 4b1a 50bd
00000330: f245 18be 4804 b1bd 9d43 a9be 9362 35bd
00000340: 68c4 04bb 6e7c 833c a173 cfbc f9a7 333c
00000350: b7a5 06bd f2f9 443b f777 f43c 62d6 bf3a
00000360: 240c 5f3c 7440 0a3d 8e0e 57bc b4c3 1ebd
00000370: e6b2 5439 5f81 cf3b 88fc c63d b288 883c
00000380: 02cb a43d 965e 23be 5a90 46be b694 15be
00000390: 30da 1a3c 3ffd b3b9 654f 8fbd 84bf a23d
000003a0: fff7 f03d 98fa 203e c722 c5b9 9c98 7538
000003b0: f01a f93c a6bb 61bc 192b 82bc 4232 193d
000003c0: 1870 13b9 bc1e 223c 1ad2 77bc e1aa c3bd
000003d0: 1263 2cbe f57b 92be 7c8c fcbd 06bc f73b
000003e0: ebba 4bbe 15ae dc3d 116f ad3d 168d a73c
000003f0: 201f 203d 1a8d a8bc a27e c9bd 28fd 903d
-0.16883609 0.17901997 0.31413364 0.0021042805 0.15416114 -0.10000658 0.04514911 -0.0051348754
0.035027113 0.31294936 0.18360248 0.26149735 -0.13325721 0.031082995 -0.12436475 -0.10290697
-0.096861035 -0.24828908 0.011549925 -0.02903743 0.006235242 0.030740222 -0.030923318 -0.009997791
-0.032204766 0.014664407 -0.014306283 0.23086844 0.29879975 0.27352342 -0.11561805 0.07704535
-0.06497934 -0.16076548 -0.09889369 -0.37239933 -0.0581635 -0.027177004 -0.24826351 0.012655051
-0.026222186 -0.12935327 0.12931123 0.060208682 0.007514286 0.07843526 -0.082427084 0.18587841
0.13011849 -0.010283661 0.014416114 -0.009413975 0.18731695 0.012148368 -0.0005906494 -0.029398208
0.0035498196 -0.009201421 0.030218204 -0.03148955 0.02340103 -0.017905245 -0.0015677618 -0.0800975
-0.021293355 -0.074768394 -0.10395137 -0.048905317 -0.07347086 0.07060869 -0.026078617 0.06303258
0.3538497 0.2284658 0.31967002 -0.1060977 0.13802697 -0.033768207 -0.049851995 -0.04797885
-0.242103 0.04138975 -0.057012945 -0.13491826 0.11508224 0.012511668 -0.049430307 -0.097701564
0.14009939 0.09891909 -0.056481313 -0.026033722 0.11733005 0.025695981 -0.043420564 -0.02471848
-0.042615827 -0.09814526 0.032218 0.13921998 -0.042351916 0.1665041 -0.035965625 -0.09697586
-0.09407079 0.044053774 -0.04942262 -0.21687488 -0.027564209 0.008433368 0.01911607 -0.04622461
-0.063478395 -0.087467685 0.17601836 0.079994686 0.14719869 0.018285336 -0.0057321605 -0.014267261
0.01306883 -0.11907986 -0.008101696 -0.057831563 -0.077291235 -0.067550406 0.12955618 0.3024741
0.22771403 -0.10509387 0.12379057 0.020622829 -0.23911119 -0.014598131 -0.22134477 -0.03496864
0.06747786 -0.12277003 -0.034524452 -0.012084762 -0.124123946 -0.075471915 0.039184354 -0.014424802
0.04073249 -0.04147193 -0.047838222 0.07923222 0.031590663 0.033025667 0.0052862586 0.04849776
-0.0047676745 0.01675445 -0.025546132 -0.013774013 -0.03372082 -0.020281639 -0.00823202 0.0019260964
-0.038734987 -0.007965486 0.07317347 -0.005404416 0.118931316 -0.0152515 -0.022442007 -0.09839846
0.03569579 0.05273893 -0.09364038 -0.071548864 0.0126147 -0.024191584 -0.052278966 0.08222922
-0.062282998 0.06657174 0.03845259 -0.09107345 0.010711597 -0.02386594 -0.01424315 0.019671692
0.012503546 0.037860982 0.026770847 0.024156941 0.0040092245 0.0043354277 0.00056153606 0.036659315
-0.030323297 -0.096780814 -0.030719366 0.24370064 0.00111952 0.08033581 0.17991939 0.17928149
0.11792852 -0.028965512 0.07966009 -0.050806325 -0.14870432 -0.08643395 -0.33059397 -0.04428346
-0.0020258669 0.016050544 -0.02532369 0.010965341 -0.03287288 0.0030056206 0.02984236 0.0014636035
0.013613734 0.033752874 -0.013126029 -0.038760856 0.0002028454 0.006332561 0.09716135 0.016666744
0.08046533 -0.1595405 -0.19391003 -0.1460751 0.009451434 -0.00034330224 -0.06997565 0.07946685
0.117660515 0.15720594 -0.0003760068 5.855468e-05 0.030408353 -0.013777649 -0.015889691 0.037401445
-0.0001406077 0.009895023 -0.015125776 -0.09554077 -0.16834667 -0.28610197 -0.12331483 0.007560256
-0.19895522 0.10775391 0.0846845 0.020453017 0.039092183 -0.020575095 -0.098386064 0.07079536

conv3.bias f4 [64]
00000000: 545c 1dbb 2ebd d43c 0987 483b bcbb 2ebd
00000010: aa8f 563d 003b 10bd 5f50 a7bc 0c0d 13bd
00000020: 9b80 d4bc c74d 4ebd b5c7 9a3c 018a a4bd
00000030: 48b6 173d a898 393b 6a7c 2ebd 8239 62bd
00000040: 6d5f f63c 3973 9ebd d9ed 33bd 2850 c23c
00000050: a57c 03bd f115 ba3d 3cb4 96bd 604c b33c
00000060: bcff 643d 45f2 b73c 4e5a 133d a8f2 7d3a
00000070: 7501 3d3d 3170 31bd 7501 bdbc e4d1 49bd
00000080: 6735 ab3d 1c3a cd3b 11db 49bb c85d f6bc
00000090: 6d3e 2bbd f5fd 6cbd 1951 0a3d b0c8 4dbc
000000a0: 8298 c0bb 1b3d c2bd 277b 6abc f60b 56bd
000000b0: 3ad9 76bd 83fc ed3c 17fb d4bc e5ed 7ebd
000000c0: 317a 0b3c 4715 3abc c4e6 a93c b33e da3c
000000d0: 5f1c d8bb 8e90 083e b733 c7bc f454 7ebc
000000e0: ecb2 e1bc fe2d 14bd 8321 b0bc 0574 e23c
000000f0: 708b f33c eca4 423c a2d0 d0bc f25f 85bd
-0.002401133 0.025969114 0.0030598065 -0.042659506 0.052383102 -0.035212517 -0.020424066 -0.035901114
-0.02594023 -0.050367143 0.018894056 -0.08034135 0.03703907 0.002831975 -0.04259912 -0.055230625
0.0300748 -0.07736821 -0.043928 0.023719862 -0.032101292 0.09086216 -0.07358596 0.021887004
0.05590795 0.02245439 0.035974793 0.00096873427 0.046143968 -0.043319885 -0.023071984 -0.049272433
0.08359795 0.0062630307 -0.003080074 -0.030074015 -0.04180758 -0.05785938 0.033768747 -0.012560055
-0.0058775553 -0.09484311 -0.014311588 -0.0522575 -0.060265757 0.029051071 -0.025998635 -0.062238593
0.008513019 -0.011357612 0.02073992 0.026641225 -0.006595179 0.13336393 -0.024316652 -0.015523184
-0.027551137 -0.036176674 -0.021500355 0.027643213 0.029729575 0.011880141 -0.025490109 -0.06512441

fc1.weight f4 [128, 64]
00000000: 94ba e73d e745 1b3d be79 9f3d 86fc d1bc
00000010: d4cf 82be 704e 193d 1cd4 a1bc 80ac 0e3e
00000020: ef20 093d 2089 c7bd 8eb4 d13c 205d c33c
00000030: 73eb 303d bdc5 283e 2de8 a8bd 8504 41bc
00000040: 2f6e 8bbd 1201 0a3e 4265 553d 605d c33d
00000050: a214 93bd af9f 53be 44b5 203d e6a8 b83d
00000060: 483c 383e 696d 22be 00f0 bebd cab3 92bd
00000070: 313c c43c c45a 2cbd 76e6 87bd 11ad 9abd
00000080: aeb8 6a3d 5488 3cbd 201a a83c 2e85 d8bb
00000090: 0826 b73d 0c00 d6bd 4a33 b03d 97ce cc3d
000000a0: 7669 a73d 4d47 ae3d 06eb fe3d 11d1 3cbe
000000b0: 20e4 a83d 416d e1bd 1279 9ebd a386 ef3d
000000c0: 206e 89bd 949c 6c3d de38 943d 4e0d 123d
000000d0: ac69 4ebe 601c 07be 1d06 533d d92e 12be
000000e0: 5c94 0dbd 6be1 cdbd 52d9 543d 0f46 ebbc
000000f0: 5996 f7bd 2b59 b43c cb1c 8b3d 844d b4be
00000100: 155f 35be 4cee 933d f21d cebd 1bc3 10be
00000110: e921 133e 559d a03d 4b9d 513e b143 8b3d
00000120: 4109 593d 4457 873d 1961 f53d 55e0 16be
00000130: 2b45 af3d cfdb 053e 0c53 ae3c 7530 a0bd
00000140: bb05 1ebd 5b7f bbbd 042d 5bbe 407c b53c
00000150: aefd 143d cd8b 05be fab6 eebd 5cc7 11bd
00000160: 27e9 0a3e 3d36 a33c 2883 33bd 9d1c 92bd
00000170: ef8b 00be aa67 bbbd e28f bc3d 9f69 ff3c
00000180: d0cb 213c b649 ef3d e89a 02be 00d0 003d
00000190: 8fdd 61bd e2b3 41bc e874 53bd c49a 66bd
000001a0: e0a7 af3d d2c3 593e 65c2 fabd e743 513e
000001b0: 881f fabd 9b69 0fbe 6439 cc3c 617d 693d
000001c0: f012 56bd 081a 18bd 8468 763d 74f9 b5bd
000001d0: eee9 d83d 8c81 7f3e b6d8 c3bd 12f0 583e
000001e0: 48e3 9cbd 648c e2bb ca13 07be 18e6 13bd
000001f0: 34f8 b63c 16d3 aabc c827 a0bc 70c0 2bbe
00000200: e99e 78ba 7706 82bd b5f1 ddbc b243 513d
00000210: 7539 b13d 266c 91bd 20ca 923e 2c8d 1f3e
00000220: be7a e5bd e9bd 83bd 2681 343c e1a4 a53d
00000230: 2edd 89be 37c9 173d 0d3d 92bc 1592 e8bb
00000240: 3a70 88bd 0399 85bd 3511 50be 5ff4 033d
00000250: 8ca2 dbbb 3524 d63d b7d1 743d b071 de3d
00000260: 4303 8dbd bb20 99bd 2cb4 6fbd 2533 783e
00000270: d7dd 033e a991 cfbb 94c3 bb3d 6f4d b4bd
00000280: 0884 a33d 1c98 db3d fb8d 55bd 7e75 d9bd
00000290: 10b5 ebbd 7b9a 533d 6209 cbbd 5da8 26be
000002a0: b992 a3bd 5827 fcbd f9bc e7bd 9d22 c5bc
000002b0: e8a9 b73d 4634 8db9 ec4c 6fbd 8192 adbd
000002c0: 2d11 ce3d 5d60 c13c 86da e9bd f783 1abe
000002d0: ff1d 753e ab44 e23c 06f0 1bbd c081 e9bd
000002e0: c859 07bd 9d00 fcbc 9935 85bd 2e33 d6bc
000002f0: a170 a4bb 11d4 003d 0237 1c3d 207b 56bd
00000300: 5f92 0e3d b06f 6e3c 4c47 40bd 9029 21bd
00000310: f42b 403d d37b 943d d77f 62be e9c3 9ebd
00000320: ea64 69bd 65b2 bc3d 66cc 44bd 26d1 c9bd
00000330: a22d 6dbd b801 833c c82f febd 331a 0c3e
00000340: 0054 983c d6a0 11be e00b 013e 646b 25bd
00000350: e03e 8dbc 5ab5 debd 77e3 cbbd b86c e7bd
00000360: a7ef 183e 17f7 1c3e aa29 04be 4b0d 4f3e
00000370: ae49 0e3e ba4d 2c3d bcf4 1a3d b056 e33c
00000380: e343 3d3d d0bc 60bd 577e e83d d06d 5abc
00000390: 50f9 af3c e886 233e 776b 773c 0565 9b3d
000003a0: 0e47 adbd 3104 5c3d 2c80 41bc 9408 14be
000003b0: 28cb 36bd d8b8 f23d 5761 b5bd 51ca 34be
000003c0: ce47 c4bd 8046 7b3b a023 813b 5d60 293e
000003d0: aa10 433e 62b1 a3bc e840 88bc a4e5 5cbe
000003e0: 0e2c d3bd 5769 a7bd 87b0 94bd 52e4 823d
000003f0: 6ce3 c53d 106d 04bd 5483 f9bd ede4 72be
0.11314884 0.03790846 0.07786892 -0.025633108 -0.25549185 0.03742832 -0.019754462 0.13932991
0.033478674 -0.097429514 0.02559879 0.023848116 0.043193292 0.16481681 -0.08247409 -0.011780863
-0.06808125 0.13476971 0.05209852 0.09539294 -0.0718167 -0.20666383 0.03923537 0.0901659
0.17991745 -0.15862049 -0.0932312 -0.07163198 0.023954483 -0.04207875 -0.06635754 -0.07552541
0.05730503 -0.04602845 0.02052027 -0.006607673 0.08942801 -0.10449228 0.086035326 0.100003414
0.08174412 0.08509693 0.12447171 -0.18439128 0.082466364 -0.11007167 -0.07737936 0.11695602
-0.06710458 0.057766512 0.07237409 0.03565722 -0.20157498 -0.13194418 0.051519502 -0.14275683
-0.034565315 -0.10052761 0.051965065 -0.02871993 -0.120892234 0.022015175 0.06792601 -0.3521539
-0.17712052 0.07223186 -0.10064305 -0.14136927 0.14368404 0.07842509 0.20470159 0.068000205
0.05298734 0.066084415 0.119814105 -0.14734013 0.085581146 0.13072132 0.021279834 -0.078217424
-0.038579684 -0.091551505 -0.21403891 0.022153974 0.03637474 -0.13041611 -0.11655994 -0.035590515
0.13565503 0.019923324 -0.043826252 -0.07134364 -0.1255338 -0.09150632 0.09207131 0.031178294
0.009875253 0.11683981 -0.12754405 0.031448364 -0.055142935 -0.011822673 -0.051625162 -0.05629994
0.085769415 0.21266106 -0.12244109 0.20436059 -0.12213045 -0.14005129 0.02492971 0.057004336
-0.052264154 -0.0371342 0.060158268 -0.0888547 0.105914935 0.24951762 -0.09562819 0.2118533
-0.07660538 -0.0069137085 -0.13191143 -0.036108106 0.02233515 -0.020852607 -0.01955022 -0.16772628
-0.00094841287 -0.06348889 -0.027092794 0.05108995 0.08653537 -0.07100706 0.28669834 0.15581197
-0.11205052 -0.06432707 0.0110171195 0.08088089 -0.2692656 0.037057128 -0.017851377 -0.0070974925
-0.066620305 -0.06523325 -0.20319064 0.032215472 -0.0067027267 0.10456125 0.059770312 0.10861528
-0.06885388 -0.07476946 -0.058521435 0.2423826 0.12877594 -0.0063345027 0.09168163 -0.08803832
0.07984167 0.10722372 -0.052137356 -0.10618113 -0.11509144 0.051660996 -0.09913899 -0.16275163
-0.079869695 -0.12312192 -0.113153405 -0.024064356 0.08967954 -0.00026932562 -0.058422968 -0.08475209
0.1006187 0.02360552 -0.11418633 -0.15089403 0.23937224 0.027620634 -0.0380707 -0.11401701
-0.033044606 -0.030762011 -0.065043636 -0.026147451 -0.005018309 0.031452242 0.038138397 -0.052363515
0.03480756 0.014552996 -0.046942994 -0.039346278 0.046916917 0.0725018 -0.2211908 -0.07752211
-0.056981005 0.092137136 -0.048046492 -0.09854345 -0.057904847 0.01599203 -0.12411457 0.13681869
0.018594742 -0.1422151 0.12602186 -0.04038562 -0.017241895 -0.10874434 -0.09955495 -0.11300033
0.1493517 0.15328632 -0.12906519 0.20219915 0.13895294 0.042066313 0.037831053 0.027751297
0.04620732 -0.054867566 0.113522224 -0.013331845 0.021481186 0.15969431 0.015101305 0.07587627
-0.08460818 0.053714935 -0.011810344 -0.14456397 -0.04462734 0.118516624 -0.08856457 -0.17655303
-0.09584008 0.0038341582 0.0039410144 0.16540666 0.19049326 -0.019982044 -0.016632512 -0.21571976
-0.10311137 -0.08174389 -0.072602324 0.06391205 0.09662518 -0.032330573 -0.12183252 -0.23720141

fc1.bias f4 [128]
00000000: 80f4 c83d 55fa a7bd eee6 303c 7863 243c
00000010: e799 bd3d 8a37 9e3d 1fb6 8ebc 5512 32be
00000020: 0ee5 24bd 86b6 e4bd d457 79bd eeb5 84bc
00000030: 32eb 643d 426f 74bb 2e8d e3bd 7ae0 eb3a
00000040: fa9c 76bd dedf 6e3d c31b af3d e5b3 283e
00000050: 0471 36bd 7324 e13c 6898 853c 19db 093d
00000060: 6fd6 973d 1902 36bc ecc7 983d f9dc 4c3e
00000070: b24c e5bc 0ea8 723a ff0e 3cbc ef6c 813d
00000080: 7de2 9fbc 38e9 033d 9571 b5bd 3b0e 2e3e
00000090: 47e6 b0bc e6b6 183d 403f c33d bb3b 0c3e
000000a0: 2040 1abd e4cb 3abe 1619 773d 3ee6 8c3c
000000b0: d77d 043e f60c 90bd 0802 5b3c 7a19 2cbd
000000c0: 1b57 b93c 8f87 d6bd f8a2 27bd 7209 b5bb
000000d0: 32b3 bfbd bbfa b4bd 3633 b8bd 8532 6f3e
000000e0: afa1 753d 4505 f5bd 1990 5ebd 366f 773d
000000f0: 703d a5bc 13c8 f13d 76de a33d 5bd7 2c3d
00000100: 6e4a a2bd 2d3b 44bd 1252 1f3e dde3 8f3d
00000110: b03b 8f3c edf3 fe3d 3ac6 d23d 9025 4a3e
00000120: b10d 4dbd 9e9d cb3d 4d10 ecbb f28c 36bc
00000130: 89da bfbd f56b 4c3e 797c 963e 638c 7fbb
00000140: bec3 e03c c59d 74bd 3560 84bd 40fd 10bd
00000150: 43f8 febc d30f e33b 1319 303e 44d7 e33c
00000160: 0b08 1bbd ce89 153d 7f99 b73d 1cc3 b1bd
00000170: c11a 373b c6e2 a63d 8f69 a73c fc8d e5ba
00000180: 7032 f5bd 8fa5 053d 84ad b13d 509d d63d
00000190: 8ab0 d63d 3567 b2bc 027b 4a3e b4aa 6e3d
000001a0: 635a 05be ffd8 323d 0d77 9b3d 30e7 263e
000001b0: c972 353c d7a9 bd3d 2a98 3c3e 12ce 8fbc
000001c0: f0d7 9cba 09b4 d43d 7e96 533d 1fa4 8bbd
000001d0: 6b7a 123d 6baf 923c dfbb 46bb a060 433d
000001e0: 6619 f73d b96a 35be 3e4f 3bbd bab6 833d
000001f0: 847c e53a 4105 4a3c 2835 c83d 004b bc3c
0.0981226 -0.08202044 0.010797245 0.010033481 0.0925787 0.07725437 -0.017420826 -0.17389806
-0.040257506 -0.11167626 -0.060874775 -0.016200032 0.055888362 -0.003729776 -0.11110912 0.0017995976
-0.0602083 0.058318965 0.08550217 0.16474874 -0.044541374 0.0274832 0.016308025 0.033656213
0.07413947 -0.011108899 0.07460007 0.2000617 -0.027990673 0.00092566095 -0.011478185 0.063196056
-0.019517178 0.032204837 -0.08859555 0.16997616 -0.02159418 0.0372838 0.09533548 0.1369466
-0.03765881 -0.1824184 0.06032666 0.017199632 0.12938629 -0.07033722 0.0133671835 -0.042016484
0.022624543 -0.104750745 -0.040926903 -0.0055248076 -0.09360351 -0.088368855 -0.08994143 0.23359115
0.059968647 -0.11963896 -0.05433664 0.060408793 -0.020170897 0.11805739 0.080014154 0.042197566
-0.079243526 -0.047907997 0.15558651 0.07025883 0.017484516 0.12448869 0.10291715 0.19740891
-0.050061885 0.099421725 -0.0072040916 -0.011142002 -0.09367854 0.19963057 0.2939184 -0.003899359
0.027437087 -0.059720773 -0.064636625 -0.035397768 -0.03112424 0.0069293766 0.17197065 0.027812608
-0.037849467 0.036508374 0.08964824 -0.08679792 0.002793953 0.08148722 0.020436076 -0.0017513628
-0.11972511 0.032628592 0.086756736 0.10479224 0.10482891 -0.021777729 0.19773486 0.058268264
-0.13022761 0.043663975 0.075910665 0.16299129 0.01107473 0.0926091 0.18417421 -0.017554317
-0.001196621 0.103859015 0.051657192 -0.06818413 0.035761278 0.017905911 -0.0030324382 0.04769957
0.12065391 -0.17716493 -0.045729868 0.06431337 0.0017508422 0.012330354 0.09775764 0.022984982

fc2.weight f4 [24, 128]
00000000: 49a4 74be 7b8c 06bc 15ea db3d b0b5 c03d
00000010: cafe d7be b7ed f3bd 089a 93bd 795a 3fbe
00000020: 5e76 103c af45 083d d00f 133d 59c4 ab3d
00000030: e9fa 22be 4a32 90be 6cc1 4a3d 701a 3ebe
00000040: 2466 bf3d f17a 8c3d 6eb8 d6bd 22df cabe
00000050: 595e a43b c708 e23d e885 523c 67fb 9d3d
00000060: c593 65be 838a a8be 8e39 1cbd f094 4abe
00000070: 98a1 e93c de5c c7be 3705 e8be d689 8a3d
00000080: 5744 923d fbb5 b5bd c230 5ebe a552 143e
00000090: 5cec 79bc b558 0dbe 4c82 973d 3848 16bd
000000a0: 3721 cebd d162 2bbd e729 10bf a3f1 fd3c
000000b0: e6e3 c23d 2c23 dbbd a0f2 833d ae7c 35be
000000c0: fa84 0c3c 7204 78be f5ca 87bd d95c f2be
000000d0: 29c6 60be 06c4 68bd 3271 09bf 065c aa3d
000000e0: ba7c 2fbe 3fbb bbbe e653 4ebe 8029 a8be
000000f0: 5573 a83d b5a9 46be f0c5 19be 55df dcbe
00000100: cbb9 d6be f127 783d b180 b7be 449e 1bbe
00000110: be3c f03d ce0c 9dbe 286a 043e ae1b 1ebd
00000120: d67a 4e3d 8734 c93d 8ad3 31be a6c8 93be
00000130: d352 33be 6de4 2e3c 985c 31be f6f6 2bbe
00000140: f90e c9bc 86b1 efbd df6b dc3d 5e8a b83d
00000150: 70a8 c3be 644e 08bf e158 54be 8fb1 dc3b
00000160: a88d d7bd ec4d 023e 892d 0a3d 9776 52bd
00000170: 853e 8d3d e102 09bd b2ad 10be 3154 43bd
00000180: 21b4 3b3d a036 42be 5d3a 843d a8e0 f4bb
00000190: 32ac 29be 8147 603d c084 c93d 0d6c 6d3d
000001a0: a85e 5d3d 7afb 133e ae25 cdbe 5120 f4be
000001b0: 8a83 27bd 00fc 853d cd9b adbd 4f65 503d
000001c0: a470 8fbd a8ea 2d3d 8539 00bf 6ed2 9bbd
000001d0: acf6 cc3c 6906 553d 1c50 c13d f359 92be
000001e0: 9f70 b03d b588 a7be 6d80 1dbe cadb bcbe
000001f0: ecb9 2abe 11b3 b43d ee18 76be 4c99 20be
00000200: 87bd 223e 1ee8 f43d a144 02be c3cd 52bd
00000210: 541f 90be db5d 21be f838 573d 87b5 33be
00000220: cd1e f0bc b8c5 5fbe 4961 0bbe cb57 c6bd
00000230: d32b db3d 18e6 39be 53d7 5abe ec75 fbbc
00000240: 7d46 e9bd 403e 89bd b3b8 a43d 391b e2be
00000250: afdf 1c3d 7c52 c6bd e59a 33bd f81d 63be
00000260: 239d 90be e4b4 54be 6f98 443d fcdd 0bbf
00000270: 35d8 70bd 8c1f 633d 8a58 4dbe 4bd9 183d
00000280: a5b8 fa3d 6090 24be 6695 d23d 0135 293d
00000290: 1ce1 8bbe 696d fdbd 64b8 b53d 1e61 ba3c
000002a0: 630c d7be efdc 10bf b657 31bf 48e1 f9bb
000002b0: daa5 f13c 2e9e a8be bd91 f7bd 3d96 b6be
000002c0: f8fb c43d 6652 85be 739d 5dbe 5312 57bc
000002d0: 5abd e1bd 4e2a 153d 9fbf 9dbe 8e75 1a3e
000002e0: 9ff4 3cbe 0c12 a1be 8e30 c6be c04f 93be
000002f0: 228c e7bd e1d0 19be 8395 423d 893a a9be
00000300: 76a8 bcbd 9fe9 0aba f1d9 0b3e d68b 67be
00000310: 3a3a 4a3d 40d1 08bf 0c83 f93d 13a7 573e
00000320: 1126 8b3d 6934 993d 93ef a1be a6ea 42bd
00000330: 2ae9 9bbe 7b79 863b a998 e03d 854a c7bc
00000340: 17da f1bd 53f6 5fbc 4fc8 9e3d 638c 913c
00000350: 8374 223d dceb 153c 1d35 f63d a6fc dd3d
00000360: 4ca2 023d 7b20 52bc be66 203d 921a f1bd
00000370: 80b7 26bd c393 02be 2422 a73d 92a0 85be
00000380: baa5 56be bbc9 8ebe 2f61 633d ac89 233d
00000390: 0da4 7fbb 261e 0bbe 5b5d e63d e325 a5bd
000003a0: a00e 8fbd cfca a4bd da65 603d 1bd2 c9be
000003b0: 2c6c 2f3e 5e72 2c3d f0fb bd3d 272f 073d
000003c0: b8f7 1bbd 0311 c0bd a99d c5bd b965 893d
000003d0: 00d4 ba3d 1382 1b3e 49c8 7abe 5ef5 bcbe
000003e0: 92f2 d73d 739b 98be d1ca 49be 1b65 a33b
000003f0: d9ef 653d 0d50 4ebc c21b fcbe c5d6 023e
-0.23890795 -0.008212204 0.10738007 0.09409654 -0.42186576 -0.11910575 -0.072071135 -0.18686856
0.008817283 0.03326958 0.03590375 0.0838706 -0.15916027 -0.28163368 0.049500868 -0.18564773
0.09345654 0.06859387 -0.10484396 -0.39623362 0.00501613 0.110368304 0.012849309 0.07713967
-0.22419651 -0.32918176 -0.038140826 -0.19783378 0.028519437 -0.3893804 -0.4531648 0.06764571
0.07141941 -0.08872601 -0.21698287 0.14484651 -0.015254106 -0.1380337 0.07397899 -0.036689967
-0.10064929 -0.041842286 -0.5631394 0.03099901 0.095161244 -0.10700068 0.064427614 -0.17723343
0.008576626 -0.24220446 -0.06630508 -0.47336462 -0.21950592 -0.056827568 -0.5368835 0.08318333
-0.17137423 -0.36666295 -0.20149192 -0.32844162 0.08225123 -0.19400676 -0.15016913 -0.4313914
-0.41938624 0.060584966 -0.3584037 -0.15197092 0.11730336 -0.30673832 0.1293112 -0.038600616
0.050410114 0.09824472 -0.17365852 -0.2886402 -0.17512064 0.010674578 -0.17320478 -0.16793427
-0.024543272 -0.11703782 0.10762762 0.090107664 -0.38214445 -0.53244615 -0.2073703 0.006735034
-0.10525066 0.12725037 0.033734832 -0.051382627 0.0689669 -0.03345001 -0.1412876 -0.047687713
0.04582608 -0.1896615 0.064564444 -0.00747307 -0.16569594 0.05475569 0.09839773 0.057964373
0.05404535 0.144514 -0.4006781 -0.47680905 -0.04089693 0.06542206 -0.08476982 0.050877865
-0.07003906 0.042460114 -0.5008777 -0.07608496 0.025019966 0.052008066 0.09439108 -0.2858425
0.08615231 -0.32721487 -0.15381022 -0.36886436 -0.16672486 0.08823217 -0.24032947 -0.15683478
0.15892611 0.11958335 -0.12721492 -0.05146576 -0.281489 -0.1575846 0.052544564 -0.17549716
-0.029311562 -0.21852767 -0.1361133 -0.09684714 0.10701718 -0.1815418 -0.21371202 -0.030695878
-0.11390398 -0.06701326 0.08043041 -0.44161394 0.03829926 -0.096837014 -0.04384889 -0.22179401
-0.28244886 -0.2077213 0.047996935 -0.54635596 -0.05879994 0.055450007 -0.20053306 0.0373166
0.122422494 -0.160707 0.10282402 0.041310314 -0.27320182 -0.12374384 0.0887306 0.022751387
-0.42001638 -0.5658712 -0.6927446 -0.0076257326 0.02949803 -0.32933182 -0.12088344 -0.35661498
0.09618372 -0.26039428 -0.21642093 -0.013126927 -0.11022444 0.036417298 -0.30810258 0.15083906
-0.1845269 -0.3145908 -0.3870892 -0.28771782 -0.11306025 -0.15021087 0.047505867 -0.3305247
-0.09211819 -0.00052990945 0.13657357 -0.22611937 0.049371935 -0.5344429 0.12183198 0.21059828
0.0679437 0.074806996 -0.31628093 -0.04758706 -0.30451328 0.004103837 0.109666176 -0.024327526
-0.118091755 -0.013669568 0.077530496 0.017767137 0.039661895 0.009150472 0.12021849 0.108392045
0.03189306 -0.012825127 0.039160483 -0.11772646 -0.040702343 -0.12751679 0.08160809 -0.26099068
-0.20961657 -0.27888283 0.055512603 0.039926216 -0.0039007694 -0.1358572 0.11248275 -0.08063867
-0.06985211 -0.08046495 0.054784633 -0.3941811 0.17131108 0.042101257 0.09276569 0.033003952
-0.03807804 -0.09378245 -0.09649212 0.06708855 0.09122467 0.15186338 -0.24490465 -0.3690595
0.105443135 -0.29806098 -0.19706275 0.004986418 0.05613694 -0.012592328 -0.49239928 0.1277724

fc2.bias f4 [24]
00000000: 8d24 01bd 5105 243e 5701 6dbd 164a bc3d
00000010: a8bb 64bd b2b3 86bd a6a4 4e3c c0fc e23d
00000020: 041a e33d c184 1dbe c4b7 47bd f071 c6bd
00000030: bb1b 3bbc 918c a23c dbb1 60be d0ae cb3d
00000040: 26a8 5abc 8d0b 3f3d 96de 933d dfa1 bf3d
00000050: 146c db3d d450 52bc b06e bc3d 2861 bd3c
-0.031529 0.16017653 -0.057862606 0.09193818 -0.055843025 -0.06577243 0.012612497 0.110833645
0.110889465 -0.15382673 -0.048759237 -0.096897006 -0.011420186 0.019842418 -0.21942846 0.09945452
-0.013345754 0.046641875 0.07220189 0.09357046 0.10713974 -0.012836654 0.092007995 0.023117617
